eval_env/results/run1/models/actor2.pt (torch, 72386 bytes, 20 tensors)

base.feature_norm.weight f4 [104]
0	0x3f7c5d37	0.98579735
1	0x3f69966c	0.9124515
2	0x3f8839dd	1.0642658
3	0x3f899d28	1.0751085
4	0x3f94b50b	1.161775
5	0x3f870532	1.054846
6	0x3f80ec5b	1.007213
7	0x3f72c40b	0.9483039
8	0x3f7c913d	0.98659116
9	0x3f80111b	1.000522
10	0x3f8139c2	1.0095751
11	0x3f6a92b4	0.916301
12	0x3f821c4a	1.0164883
13	0x3f73b84d	0.95203096
14	0x3f802175	1.001021
15	0x3f6cfd4c	0.92574
16	0x3f720337	0.94536155
17	0x3f7bef03	0.9841158
18	0x3f82a1c5	1.0205618
19	0x3f86df1d	1.0536839
20	0x3f8367b3	1.0266021
21	0x3f79275d	0.9732569
22	0x3f83890e	1.0276201
23	0x3f77ae08	0.96749926
24	0x3f84e853	1.03834
25	0x3f81aa06	1.0130012
26	0x3f883754	1.0641885
27	0x3f774b19	0.96598965
28	0x3f7a9757	0.97887176
29	0x3f80db9a	1.0067017
30	0x3f7cec97	0.9879851
31	0x3f80c810	1.0061054
32	0x3f6b8fa5	0.9201606
33	0x3f76ae08	0.963593
34	0x3f6894ac	0.90851855
35	0x3f9064a5	1.1280714
36	0x3f8664ff	1.0499572
37	0x3f9470bc	1.1596904
38	0x3f8b0914	1.0862145
39	0x3f8ca3bf	1.0987471
40	0x3f8b50db	1.088405
41	0x3f85978b	1.0436872
42	0x3f8a72a7	1.0816239
43	0x3f8dbeb6	1.1073825
44	0x3f66f696	0.9022001
45	0x3f75b178	0.9597392
46	0x3f75d4f5	0.9602807
47	0x3f5d41c5	0.8642848
48	0x3f6c128b	0.92215794
49	0x3f776065	0.9663146
50	0x3f7ed041	0.9953652
51	0x3f69f804	0.91394067
52	0x3f6d45d2	0.9268466
53	0x3f85adc1	1.044365
54	0x3f770ef1	0.96507174
55	0x3f6f0f91	0.9338313
56	0x3f725e9d	0.9467562
57	0x3f6c558c	0.92318034
58	0x3f8b3ee9	1.0878574
59	0x3f71bc24	0.94427705
60	0x3f6aadd4	0.9167149
61	0x3f7670ca	0.9626585
62	0x3f6d365d	0.92661077
63	0x3f81439c	1.0098758
64	0x3f71ac54	0.94403577
65	0x3f67286a	0.9029604
66	0x3f7e01ac	0.992213
67	0x3f6ff9c5	0.93740493
68	0x3f88e4e3	1.0694851
69	0x3f740e15	0.9533399
70	0x3f776d14	0.96650815
71	0x3f71fa76	0.945228
72	0x3f7fab86	0.998711
73	0x3f88b6b6	1.0680759
74	0x3f72b1ca	0.94802535
75	0x3f818a01	1.012024
76	0x3f7a9cb9	0.9789539
77	0x3f79ee0c	0.97628856
78	0x3f88171b	1.0632051
79	0x3f73e0fa	0.9526516
80	0x3f73f26d	0.9529179
81	0x3f6e4d25	0.93086463
82	0x3f798fad	0.97484857
83	0x3f95e374	1.1710038
84	0x3f78a6c8	0.9712949
85	0x3f701f1f	0.9379749
86	0x3f77084f	0.9649705
87	0x3f721915	0.9456952
88	0x3f87b358	1.0601606
89	0x3f776e18	0.96652365
90	0x3f72378d	0.94616014
91	0x3f6791e0	0.9045696
92	0x3f828dda	1.019954
93	0x3f8786ea	1.0588048
94	0x3f73cb2c	0.9523189
95	0x3f774667	0.965918
96	0x3f7802d8	0.9687934
97	0x3f72250a	0.9458777
98	0x3f8478dd	1.0349385
99	0x3f6c3149	0.92262703
100	0x3f748b1c	0.95524764
101	0x3f7254a7	0.9466042
102	0x3f69de83	0.9135515
103	0x3f83a154	1.0283608

base.feature_norm.bias f4 [104]
0	0xbb144c4f	-0.0022628491
1	0x3da62f3a	0.081144765
2	0xbc35d5ee	-0.011098368
3	0xbd59540d	-0.053058673
4	0xbd6f1b23	-0.05837549
5	0xbb77a93a	-0.0037790076
6	0x3d9ef417	0.077614
7	0xbdd4a342	-0.103827015
8	0x3cb02aa8	0.021504715
9	0x3cf139a0	0.029446423
10	0x3c54e81f	0.012994795
11	0x3db1afc7	0.08676105
12	0x3e13ad69	0.1442162
13	0x3cdba819	0.026813554
14	0x3d45d771	0.048301164
15	0xbb2f0881	-0.002670795
16	0x3c85de01	0.016341211
17	0xbb85d56c	-0.0040842798
18	0xbd4cefd0	-0.05003339
19	0x3d76f05a	0.06028781
20	0x3d0a9c4a	0.033840455
21	0x3cd21ff4	0.025650002
22	0xbc8b488c	-0.017002366
23	0x3d90aa58	0.070637405
24	0xbbac6a20	-0.0052616745
25	0x3d90af4e	0.07064687
26	0xbdc83753	-0.09776177
27	0xbd821583	-0.06351759
28	0x3d34c526	0.044133328
29	0x3d7592f9	0.059954617
30	0x3ca297b9	0.019847738
31	0xbd4ecb95	-0.05048712
32	0x3c289b8f	0.010290994
33	0xbdd23fda	-0.10266085
34	0x3da904d0	0.08252871
35	0x3c620c65	0.0137969
36	0x3d35b2ee	0.044360094
37	0x3d3f5441	0.04671121
38	0x3d020766	0.031745337
39	0xbb4a4237	-0.003086222
40	0x3daf8bc3	0.08571579
41	0x3cbf11c6	0.023323905
42	0x3cdf2fc1	0.02724445
43	0x3dd60ef7	0.10452073
44	0x3d2bfff3	0.04199214
45	0x3cd06fb2	0.025443885
46	0x3d8db2ab	0.06918844
47	0x3d55f6a3	0.052237164
48	0x3ce8c005	0.028411875
49	0x3d852269	0.06500704
50	0xbdb3eed2	-0.08785786
51	0xbcd06935	-0.025440792
52	0xbd56dba5	-0.052455563
53	0x3d349866	0.04409065
54	0xbc0daddd	-0.008647409
55	0xbc01618d	-0.007896793
56	0xbdaf2141	-0.085512646
57	0xbc612af3	-0.01374315
58	0x3c9d8589	0.019228714
59	0x3ca1eea0	0.019767106
60	0xbc0fb002	-0.008769991
61	0x3b3b9db9	0.0028627946
62	0xbc3cbf3e	-0.011520205
63	0xbdce4e88	-0.100735724
64	0xbd6185be	-0.055059187
65	0xbdbe066e	-0.0927857
66	0xbd366551	-0.044530217
67	0xbd590d51	-0.052991215
68	0x3d0375a6	0.03209462
69	0x3ba39a20	0.0049927384
70	0x3c3e6c9c	0.011622574
71	0xbad0278e	-0.0015880929
72	0xbd1d4794	-0.03839834
73	0xbc8a1bce	-0.016858961
74	0x3d527506	0.051381133
75	0xba43092f	-0.0007440028
76	0x3bdecacb	0.006799077
77	0x3d8d358e	0.0689498
78	0x3aaed732	0.001333928
79	0x3d119207	0.035539653
80	0x3d038852	0.032112427
81	0x3c9d4682	0.01919866
82	0xbd995793	-0.074874066
83	0xbc5774d8	-0.013150416
84	0x3d539c23	0.051662575
85	0xbd271ce8	-0.04079905
86	0xbd33091c	-0.04370986
87	0xbd9d1590	-0.07670128
88	0xbd8cf24a	-0.068821505
89	0xbda94b78	-0.08266348
90	0x3cd7bc15	0.026334802
91	0xbd222399	-0.03958473
92	0x3cd06055	0.02543656
93	0x3ca7e196	0.02049331
94	0xbce96080	-0.028488398
95	0x3d86b56c	0.06577572
96	0x3d5a0882	0.05323077
97	0x3d48a437	0.048984732
98	0x3d730990	0.05933529
99	0x3c8ff207	0.017571462
100	0x3b2a6c7e	0.0026004608
101	0xbd108e09	-0.035291705
102	0xbd61876a	-0.05506078
103	0xbc6635fb	-0.014050956

base.mlp.fc1.0.weight f4 [64, 104]
0	0xbc979cae	-0.018507328
1	0x3e84a444	0.25906575
2	0xbd58c667	-0.052923586
3	0x3e6202e9	0.22071423
4	0x3df7dd5d	0.121027686
5	0xbe4fc209	-0.20288862
6	0xbdd20f61	-0.102568395
7	0x3e0f893f	0.14017199
8	0xbe327f59	-0.17431392
9	0x3e99ec97	0.30063316
10	0x3ea67eca	0.32518607
11	0xbe7ce6a6	-0.2469736
12	0xbaf18db9	-0.0018429077
13	0x3d5e11d8	0.054216236
14	0x3e480c48	0.19535935
15	0xba277d88	-0.000638925
16	0x3e8b4990	0.2720456
17	0xbd68d118	-0.056840032
18	0x3d710af6	0.058848344
19	0x3e596ab1	0.21232106
20	0xbe4d9549	-0.20076479
21	0x3e3b3d3f	0.18285082
22	0xbe06478c	-0.1311323
23	0xbe26c62a	-0.16286531
24	0xbdd15d54	-0.10222879
25	0x3e0c53b6	0.13703808
26	0x3d31035e	0.0432161
27	0x3e3338ba	0.17502108
28	0xbc27c765	-0.01024041
29	0xbc8abbf4	-0.016935326
30	0xbe2d1083	-0.1690083
31	0xbcf02b53	-0.029317534
32	0xbdab0e1f	-0.08352303
33	0xbc0789fe	-0.008272646
34	0xbe084efe	-0.13311383
35	0xbe6379dc	-0.22214454
36	0xbe877b25	-0.2646114
37	0xbe26d81d	-0.16293378
38	0xbe6522ea	-0.223766
39	0xbd1233a0	-0.035693765
40	0x3d913162	0.07089497
41	0xbe85f898	-0.26166224
42	0x3d35cbc1	0.044383768
43	0xbae73ae6	-0.0017641454
44	0x3de075d3	0.10959973
45	0xbd082f0f	-0.033248004
46	0xbe3c4a3c	-0.18387693
47	0xbe0e0c69	-0.13871922
48	0x3d3e2a87	0.046427276
49	0x3d31aab7	0.043375697
50	0x3e83881a	0.25689775
51	0x3e82014f	0.25391623
52	0x3d3234a4	0.043507233
53	0xbd0b61e2	-0.034028895
54	0x3da1f192	0.07907404
55	0x3d52f561	0.051503543
56	0xbe80130d	-0.25014535
57	0x3dab73e7	0.08371716
58	0x3e1b5958	0.151708
59	0x3e403179	0.18768872
60	0xbc8a33ac	-0.016870342
61	0x3d7d3e29	0.06182686
62	0xbd0b6f69	-0.034041796
63	0x3e5d63da	0.21620122
64	0xbd10ced7	-0.035353508
65	0x3d65900e	0.056045584
66	0x3d9b39cc	0.07579383
67	0xbcfde23b	-0.030991664
68	0x3d2d7c73	0.042355012
69	0xbc88a8f0	-0.016682118
70	0x3d3ae4b2	0.045628257
71	0xbd95f212	-0.07321562
72	0xbd1f2bcc	-0.038860127
73	0x3ea6fd97	0.3261535
74	0x3d8b3730	0.067976356
75	0x3de6f1e0	0.11276603
76	0x3cd1f1ca	0.02562799
77	0x3d436700	0.04770565
78	0x3df13dfd	0.117794015
79	0xbef525ed	-0.47880498
80	0xbd031698	-0.03200397
81	0x3da94737	0.08265536
82	0xbdd07e86	-0.101803824
83	0x3edc6b08	0.43050408
84	0x3bda3005	0.0066585564
85	0xbdd25adb	-0.102712356
86	0xbdc41024	-0.09573391
87	0x3d21254a	0.039342202
88	0x3e369a22	0.17832235
89	0x3d49cefc	0.04926966
90	0x3da2732f	0.07932126
91	0xbdc64dae	-0.09682785
92	0xbe476715	-0.19472916
93	0xbde59724	-0.112104684
94	0x3d485539	0.0489094
95	0x3e48ae16	0.19597659
96	0xbbb450ab	-0.0055027804
97	0xbca78a9d	-0.020451838
98	0x3e860147	0.2617285
99	0x3dc2f84c	0.09520015
100	0xbc861ef4	-0.016372181
101	0xbe28b519	-0.16475333
102	0x3dbcd456	0.09220187
103	0x3d8f5899	0.069993205
104	0xbd8a98c5	-0.0676742
105	0xbcfb99bd	-0.030712957
106	0x3e0d099b	0.13773195
107	0x3e41e08a	0.18933311
108	0xbda8a8c8	-0.082353175
109	0xbec2000b	-0.37890658
110	0xbaf42469	-0.0018626574
111	0x3e84f0ba	0.2596491
112	0x3e0e392b	0.13888995
113	0x3c9c7104	0.019096859
114	0xbeabf6e3	-0.33586797
115	0x3d949c0d	0.07256327
116	0xbbab06cb	-0.0052193156
117	0x3ea4f5a2	0.32218653
118	0xbd99564c	-0.07487163
119	0xbd2ad673	-0.04170842
120	0xbe01d332	-0.12678221
121	0x3d7ea991	0.06217343
122	0x3d0744d8	0.03302464
123	0x3bb42ec2	0.005498738
124	0xbe097a3b	-0.13425533
125	0x3e0813dd	0.13288827
126	0x3d4a70e4	0.049424067
127	0xbca409b1	-0.020024152
128	0x3d34db18	0.044154257
129	0xbe154c3d	-0.14579864
130	0x3db1c7bb	0.08680674
131	0x3e190dae	0.14946625
132	0x3dcc09c0	0.09962797
133	0xbcff0f2b	-0.031135162
134	0xbd801b56	-0.06255214
135	0xbe338789	-0.17532171
136	0x3b73c40a	0.0037195706
137	0xbe145ef9	-0.14489354
138	0x3e2e45f0	0.17018867
139	0x3da7182c	0.08158907
140	0xbe4aeb83	-0.19816403
141	0x3e38dcf6	0.1805304
142	0xbd1b4dfe	-0.037916176
143	0xbe347613	-0.17623167
144	0x3e3124bf	0.17299174
145	0x3dee8332	0.11646117
146	0xbbfa5c99	-0.007640433
147	0x3d29d46f	0.041462358
148	0x3de778c5	0.11302332
149	0x3d4828f0	0.048867166
150	0x3daaeb2e	0.08345638
151	0xbd291982	-0.04128409
152	0xbd6c9eb7	-0.05776855
153	0xbe0032cd	-0.12519379
154	0x3ced1322	0.028939787
155	0x3d4986a6	0.049200676
156	0xbd6ca8a0	-0.057778
157	0xbe400ddc	-0.18755287
158	0xbc3e7d16	-0.0116265025
159	0x3e255589	0.1614591
160	0x3da9fc6d	0.083000995
161	0x3cfd24c3	0.030901318
162	0xbe70190c	-0.23447055
163	0x3d9eee81	0.07760335
164	0x3e1b978e	0.15194532
165	0xbe21677a	-0.1576213
166	0x3d1d4921	0.03839982
167	0x3dadd260	0.084873915
168	0xbd8153a7	-0.063147835
169	0x3dd0aa10	0.10188687
170	0x3b8832aa	0.0041564303
171	0xbe64e353	-0.22352342
172	0xbeaa73aa	-0.3329137
173	0x3d880bca	0.066428736
174	0xbc92217b	-0.01783823
175	0x3e88595a	0.2663067
176	0x3d42a87b	0.047523957
177	0xbe3417dd	-0.17587228
178	0xbde778fe	-0.11302374
179	0xbe01e204	-0.12683874
180	0xbd9a680f	-0.07539379
181	0xbe061009	-0.13092054
182	0x3ce29edb	0.027663639
183	0x3db76e09	0.089565344
184	0xbdc2fae6	-0.09520511
185	0x3d91d56e	0.071207866
186	0xbe3942ff	-0.18091963
187	0xbca57813	-0.020198857
188	0x3d0f4238	0.03497526
189	0xbe8fa0fa	-0.28052503
190	0x3e47aeb9	0.19500245
191	0xbea10ff9	-0.314575
192	0x3d928ef7	0.07156175
193	0xbc88abe5	-0.016683528
194	0xbedcc11d	-0.43116084
195	0x3bd21181	0.006410778
196	0xbdb227e0	-0.08699012
197	0xbc899381	-0.016793968
198	0x3d81e799	0.06343002
199	0x3e270e4c	0.16314048
200	0xbd43b15b	-0.04777656
201	0x3e3db4ae	0.18525955
202	0xbe9f2460	-0.3108244
203	0xbe52e81b	-0.20596354
204	0x3e180d59	0.14848842
205	0xbd9f9554	-0.07792154
206	0x3e067049	0.13128771
207	0xbd6dd7ff	-0.058067318
208	0xbe2de395	-0.16981347
209	0xbe004822	-0.12527516
210	0xbe02805b	-0.12744276
211	0x3e0bff41	0.1367159
212	0x3e4c59cf	0.19956134
213	0xbe859cd7	-0.26096222
214	0xbe0160e4	-0.12634617
215	0xbde422d2	-0.11139454
216	0x3e1c62d9	0.15272082
217	0xbe83caa1	-0.2574053
218	0x3c5fa7a9	0.013650813
219	0xbd66e44a	-0.056370057
220	0x3e247a87	0.16062365
221	0xbcf435be	-0.029810783
222	0xbe68b8b6	-0.22726712
223	0x3e7d4286	0.24732408
224	0xbd3a4b92	-0.045482226
225	0x3c9f126f	0.01941797
226	0x3dc132ab	0.09433492
227	0xbe3d5fae	-0.1849353
228	0xbe384b29	-0.17997421
229	0x3d375e57	0.044767704
230	0x3df7eabf	0.12105321
231	0x3e7c5929	0.24643387
232	0xbd4bd357	-0.049762096
233	0xbd8f2a36	-0.06990473
234	0x3d8d7f7a	0.0690908
235	0xbd7f727e	-0.062365048
236	0x3ed1d012	0.40979058
237	0xbc88e8ee	-0.016712632
238	0x3dd322db	0.103093825
239	0xbe239a0e	-0.15976736
240	0x3e1c1384	0.1524182
241	0x3e63dd3f	0.22252367
242	0xbe09a90e	-0.13443395
243	0x3e1fe511	0.15614726
244	0xbddaade8	-0.10677701
245	0x3dd56001	0.10418702
246	0x3e322b22	0.17399266
247	0xbbfe2ac3	-0.0077565624
248	0x3e8da777	0.27666828
249	0x3d10e139	0.03537104
250	0x3e886d30	0.26645803
251	0x3e7edb24	0.24888283
252	0xbb977218	-0.0046217553
253	0x3c98976b	0.01862689
254	0xbd853503	-0.06504252
255	0x3cbef5c4	0.02331055

base.mlp.fc1.0.bias f4 [64]
0	0xbcef8bd2	-0.029241476
1	0xbc3aa02c	-0.011390727
2	0xba8d0479	-0.0010758779
3	0xbc23fde0	-0.010009259
4	0xbc851093	-0.016243255
5	0xbd028915	-0.031869013
6	0xbd4de4d7	-0.050267067
7	0x3d234834	0.03986378
8	0xbd2426af	-0.040075954
9	0x3d01279c	0.031531915
10	0xba42887e	-0.00074208516
11	0xbd7ad203	-0.06123544
12	0x3a4e60ad	0.0007872682
13	0xbc51398a	-0.012770066
14	0xbd358d1c	-0.044324026
15	0x3c91e804	0.017810829
16	0xbaf8cd9c	-0.0018982175
17	0x3b5e352d	0.0033906207
18	0xbd170824	-0.036872998
19	0x3c7ec54b	0.015549968
20	0x3d8f83fa	0.070075944
21	0x3db1ec6a	0.086876705
22	0x3b6d7343	0.0036232031
23	0x3c0e536f	0.008686884
24	0xbc5d94a8	-0.013524212
25	0xbb6c15b2	-0.0036023674
26	0x3cbd9b5a	0.023145366
27	0xbc370ce9	-0.011172512
28	0xbc97f64b	-0.018550059
29	0xbc333c4c	-0.010939669
30	0xbd8610a3	-0.06546142
31	0xbc4d80e0	-0.012542933
32	0xbc031d3f	-0.008002578
33	0x3ce325f6	0.027728062
34	0xbcf0d752	-0.029399548
35	0xbb02acbd	-0.0019939386
36	0xbd4bc6d3	-0.04975016
37	0xbc8bad01	-0.017050268
38	0x3cbe93b6	0.023263793
39	0xbc05810d	-0.008148444
40	0xbc9b5f7c	-0.018966429
41	0xbce2981b	-0.02766042
42	0xbc538164	-0.012909267
43	0xbc5412fc	-0.012943979
44	0xbcd98bc8	-0.02655591
45	0x3c75ff85	0.015014534
46	0xbc92ced5	-0.01792089
47	0xbc1931ec	-0.009350281
48	0x3db80255	0.0898482
49	0xbc3a4f3e	-0.011371432
50	0xbcce07c6	-0.025150191
51	0xbd05d181	-0.0326705
52	0xbcdb24d7	-0.026750965
53	0x3cb8c0fe	0.022552963
54	0xbc95754a	-0.018244404
55	0x3d5a13c2	0.0532415
56	0xbd1fd4cd	-0.039021302
57	0x3c95f792	0.018306527
58	0x3b848d12	0.004045137
59	0xbd21cc57	-0.039501514
60	0x3b05d195	0.002041911
61	0xbca9164c	-0.020640515
62	0xbcdf8dfa	-0.02728938
63	0x3c2b6e3a	0.010463292

base.mlp.fc1.2.weight f4 [64]
0	0x3f770bd5	0.9650243
1	0x3f7d515e	0.9895228
2	0x3f8e6dec	1.1127295
3	0x3f8536ed	1.0407387
4	0x3f7a39c6	0.97744405
5	0x3f8705df	1.0548667
6	0x3f686f42	0.90794766
7	0x3f79ab82	0.97527325
8	0x3f74acea	0.95576346
9	0x3f88413d	1.0644909
10	0x3f792090	0.9731531
11	0x3f7fdf7f	0.999504
12	0x3f74f73f	0.9568977
13	0x3f8bef2c	1.0932364
14	0x3f883ea9	1.0644122
15	0x3f7a33ff	0.9773559
16	0x3f7a0973	0.9767067
17	0x3f770377	0.9648966
18	0x3f7d4682	0.9893571
19	0x3f68fc4e	0.91009986
20	0x3f80ba80	1.0056915
21	0x3f8373be	1.0269697
22	0x3f7c4c2b	0.98553723
23	0x3f83054e	1.0235994
24	0x3f831462	1.0240595
25	0x3f6b704e	0.9196824
26	0x3f78faf4	0.97257924
27	0x3f814ff4	1.0102525
28	0x3f6ab866	0.9168762
29	0x3f7b0aad	0.98063165
30	0x3f80170d	1.0007035
31	0x3f819cac	1.0125937
32	0x3f802b96	1.0013301
33	0x3f6acfa6	0.91723096
34	0x3f710395	0.9414609
35	0x3f875a31	1.0574399
36	0x3f7eb84a	0.9949995
37	0x3f722387	0.9458546
38	0x3f80c847	1.006112
39	0x3f87c4ab	1.0606893
40	0x3f70d17c	0.9406965
41	0x3f73a76c	0.9517734
42	0x3f7d6170	0.989768
43	0x3f85ebe4	1.0462613
44	0x3f6ebc7b	0.9325635
45	0x3f8376e6	1.027066
46	0x3f6a6007	0.91552776
47	0x3f8bf6f4	1.0934739
48	0x3f8d0887	1.1018227
49	0x3f84b10b	1.0366529
50	0x3f7663ca	0.96246016
51	0x3f538f3c	0.82640433
52	0x3f7b64b7	0.98200554
53	0x3f7f73c0	0.99785995
54	0x3f687358	0.90801
55	0x3f75fc95	0.96088535
56	0x3f76c52d	0.96394616
57	0x3f806470	1.0030651
58	0x3f83bebf	1.0292586
59	0x3f875206	1.0571907
60	0x3f82c71b	1.0217012
61	0x3f7f990c	0.99842906
62	0x3f7907f9	0.9727779
63	0x3f6c29d3	0.9225132

base.mlp.fc1.2.bias f4 [64]
0	0x3cd81b1c	0.026380114
1	0xbbd92793	-0.006627032
2	0xbced8c39	-0.028997527
3	0x3b464e03	0.00302589
4	0xbc4ba8ca	-0.012430379
5	0xbd431676	-0.047628842
6	0x3d8d96f1	0.069135554
7	0x3d9bad5a	0.076014236
8	0xbb3fb3a4	-0.0029251361
9	0xbdb39751	-0.08769096
10	0xbbc0c16d	-0.005882433
11	0x3c0d6e0a	0.008632192
12	0xbd8b0e45	-0.06789831
13	0x3d7eda37	0.062219825
14	0xbdb3e83c	-0.087845296
15	0xbc8ad028	-0.01694496
16	0xbd1e81d8	-0.038698047
17	0x3d66f9a5	0.056390423
18	0xbd1c6945	-0.03818633
19	0x39e72610	0.00044088112
20	0x3d733d67	0.05938473
21	0x3dc5f38d	0.09665594
22	0xbce9bae1	-0.028531494
23	0xbd3f0d17	-0.046643343
24	0xbd05b110	-0.032639563
25	0xbb59f71b	-0.0033258859
26	0x3c51b97a	0.012800569
27	0xbcf48a70	-0.029851168
28	0xbb4fd850	-0.0031714626
29	0x3b958958	0.004563492
30	0xbd88e91b	-0.06685086
31	0xbd0625d9	-0.032750938
32	0x3c4d6d46	0.01253826
33	0x3dabf976	0.0839719
34	0x3ceda94b	0.02901139
35	0x3bd48ced	0.006486526
36	0xbc2fc04f	-0.010727002
37	0x3db576cd	0.0886055
38	0x3dac829f	0.084233515
39	0xbc6d2d23	-0.014476093
40	0x3cbdf0c6	0.023186099
41	0xbc608d78	-0.013705604
42	0xbbbd993a	-0.0057860883
43	0x3c043f07	0.0080716675
44	0x3d04af67	0.03239384
45	0xbc53bad8	-0.012922965
46	0x3daf87cb	0.08570822
47	0x3c5d5dd4	0.01351114
48	0x3d72f633	0.059316825
49	0xbd612b59	-0.05497298
50	0xbcb03825	-0.021511147
51	0x3e235e1b	0.15953867
52	0x3d131783	0.035911094
53	0xbcc0005f	-0.023437677
54	0xbd9da542	-0.07697536
55	0x3de44f83	0.11147978
56	0xbcb248c5	-0.021763215
57	0x3cb75df4	0.022383668
58	0x3cc8685e	0.024463829
59	0xbc209bc5	-0.009802763
60	0xbd534417	-0.051578607
61	0xbddacc67	-0.10683518
62	0x39cf6567	0.00039557667
63	0xbce70da5	-0.028204748

base.mlp.fc_h.0.weight f4 [64, 64]
0	0x3da3df95	0.08001629
1	0x3e4c50bb	0.19952671
2	0x3d670b71	0.056407396
3	0xbf000d34	-0.50020146
4	0xbb60a419	-0.0034277497
5	0x3e83e72b	0.25762305
6	0xbe0f6e08	-0.14006817
7	0x3bb60c49	0.0055556637
8	0xbe88988c	-0.26678884
9	0x3e3b207a	0.18274108
10	0x3e044417	0.12916599
11	0xbe826418	-0.2546699
12	0xbd79e0c4	-0.06100537
13	0x3e71e017	0.2362064
14	0x3e18325e	0.14862964
15	0xbde0c67b	-0.10975357
16	0x3e0680b2	0.13135031
17	0x3dde155b	0.10843917
18	0xbe2b70db	-0.1674227
19	0x3e1f9c7d	0.1558704
20	0xbec782a4	-0.38966858
21	0x3e79b48d	0.24385281
22	0xbe351af8	-0.17686069
23	0x3dbdadc7	0.09261661
24	0xbe28b2ee	-0.16474506
25	0x3c37a305	0.0112083005
26	0xbde92a91	-0.11385072
27	0xbe5be2ee	-0.21473286
28	0x3e81d423	0.2535716
29	0xbd42c4e9	-0.04755107
30	0x39c50bba	0.00037583505
31	0xbd811f09	-0.063047476
32	0xbede5379	-0.4342306
33	0xbe323e57	-0.17406593
34	0x3e019239	0.12653436
35	0x3df2e0a3	0.11859252
36	0xbe16af1e	-0.1471524
37	0xbd82b02a	-0.06381257
38	0xbd9d9732	-0.07694854
39	0xbd32e785	-0.043677825
40	0x3e36b8d8	0.1784395
41	0xbdd53b88	-0.10411745
42	0x3eafc99f	0.34333512
43	0x3d671ffb	0.056426983
44	0x3d890bff	0.06691741
45	0x3c890c60	0.016729534
46	0xbdf56e6e	-0.119839534
47	0x3db97e5d	0.09057305
48	0x3da2f690	0.07957184
49	0x3d6bc686	0.057562374
50	0xbdef8cab	-0.11696752
51	0xbe505cc5	-0.20347889
52	0xbd92ed73	-0.07174196
53	0x3e1bf11b	0.15228693
54	0xbeb8adfa	-0.36070234
55	0x3b4e1bd4	0.0031449692
56	0x3e467834	0.19381791
57	0x3e836b0a	0.25667602
58	0xbdcee961	-0.10103107
59	0x3d9f554e	0.077799425
60	0x3d264e77	0.040602174
61	0x3e01a61c	0.12661022
62	0x3d9d7c4f	0.076897256
63	0xbd93a545	-0.07209257
64	0x3e7207f4	0.23635846
65	0x3da44bfa	0.08022304
66	0xbea52155	-0.32251993
67	0xbd921955	-0.07133738
68	0xbee29381	-0.44253162
69	0xbe50b6fe	-0.20382306
70	0xbdadeda5	-0.08492593
71	0xbdb9acf4	-0.09066191
72	0x3dcc9d11	0.099908955
73	0x3c3a69ee	0.011377795
74	0xbe07f4c5	-0.13276966
75	0xbe6d7f28	-0.23193038
76	0xbe03ade0	-0.12859297
77	0x3c41d91d	0.011831549
78	0xbe37541e	-0.17903182
79	0x3e711af0	0.23545432
80	0x3c3034db	0.010754789
81	0xbe0cbd46	-0.13744077
82	0xbe83209e	-0.25610822
83	0x3c892bb6	0.016744476
84	0xbe5e3b19	-0.21702231
85	0xbe516ade	-0.20450923
86	0x3e985fa7	0.29760477
87	0x3e06c3c3	0.13160615
88	0xbe20f05e	-0.15716693
89	0xbca3d311	-0.019998105
90	0xbcf2cb34	-0.02963791
91	0xbd6a9843	-0.057274114
92	0x3deff42c	0.11716494
93	0x3e55035f	0.20802067
94	0xbd885369	-0.06656534
95	0xbe2fd16b	-0.1716973
96	0x3dd858e9	0.10563833
97	0xbd1d3433	-0.03837986
98	0x3d9e061d	0.0771601
99	0x3e5a2199	0.21301879
100	0x3e76bccf	0.24095462
101	0xbd30fb9b	-0.0432087
102	0xbe36d1af	-0.17853425
103	0xbdec44ef	-0.115365855
104	0xbe289b52	-0.164655
105	0xbe56c3af	-0.20973085
106	0x3e81d24d	0.2535576
107	0x3e0b00de	0.1357455
108	0x3e21e76e	0.1581094
109	0xbe5ccd48	-0.21562684
110	0xbdfe7b8b	-0.12425908
111	0x3e37855e	0.1792197
112	0xbd8f9b23	-0.07012012
113	0x3e957ef8	0.29198432
114	0x3dce1c0e	0.10063945
115	0xbd898fa0	-0.067168474
116	0x3d3e6c6d	0.04649012
117	0xbe377171	-0.17914368
118	0x3e805d7c	0.25071323
119	0x3ead9d2c	0.33908975
120	0xbd9bc707	-0.07606321
121	0xbe99b8da	-0.30023843
122	0xbdc11fd7	-0.09429901
123	0x3e7b3e59	0.24535502
124	0xbe5f1190	-0.21784043
125	0xbd42e441	-0.04758096
126	0x3bcd77e2	0.0062703947
127	0x3e03ebae	0.12882873
128	0x3d2e4a15	0.04255112
129	0x3e6ca32b	0.23109119
130	0x3e2a282e	0.1661689
131	0x3e2f3c4f	0.1711285
132	0xbe20cd5a	-0.15703335
133	0xbdfce469	-0.12348253
134	0x3baa50e8	0.005197633
135	0xbeb036aa	-0.34416705
136	0xbe8ae3a4	-0.271268
137	0x3d9720c7	0.07379299
138	0xbce393cf	-0.027780442
139	0x3e3750ce	0.17901918
140	0xbdf166c7	-0.11787181
141	0x3ddaf10d	0.10690508
142	0xbda4d765	-0.08048896
143	0x3de071cb	0.10959204
144	0x3da0e0f4	0.078554064
145	0x3e27a82a	0.16372743
146	0x3e23fa3f	0.1601343
147	0xbcd3a77f	-0.025836704
148	0xbc25f2cf	-0.010128691
149	0xbe0c8113	-0.13721113
150	0xbe2ebcee	-0.17064258
151	0xbde6ce76	-0.11269848
152	0xbd866ceb	-0.06563743
153	0xbda31769	-0.079634495
154	0x3c33251c	0.0109341405
155	0x3e1bfe98	0.15233839
156	0x3eb2e7a7	0.34942362
157	0xbd1537c7	-0.036430147
158	0xbc698d3c	-0.014254864
159	0xbd43efd8	-0.047836155
160	0x3e3ef9b0	0.18649936
161	0xbc792c8a	-0.015208373
162	0xbeb0a447	-0.34500334
163	0xbe874a05	-0.2642366
164	0x3e0b416e	0.13599178
165	0x3ccb6c45	0.0248319
166	0x3cf3e458	0.029771969
167	0xbd98b2c5	-0.074559726
168	0x3de5978a	0.112105444
169	0x3d86134c	0.06546649
170	0x3e74b64c	0.23897666
171	0xbd0aa426	-0.03384795
172	0xbe242df9	-0.16033162
173	0xbe4b4421	-0.19850208
174	0xbefb74b7	-0.49112484
175	0xbd907f96	-0.07055585
176	0xbd7d9ce4	-0.0619172
177	0x3d8e0c67	0.06935959
178	0xbe64ccb0	-0.22343707
179	0x3e5d75db	0.2162699
180	0x3bd1482d	0.006386778
181	0x3e860746	0.26177424
182	0x3e93d3ae	0.28872436
183	0x3e82ee3d	0.25572386
184	0x3e24ba5f	0.1608672
185	0x3e8c4445	0.27395836
186	0x3eb88781	0.3604088
187	0xbe12d617	-0.14339481
188	0x3d98cc9b	0.074609004
189	0xbaadcc87	-0.0013259806
190	0x3e87d58e	0.26530117
191	0xbdb830f5	-0.08993713
192	0xbe4de6b9	-0.20107545
193	0x3d174ca2	0.036938317
194	0xbe2b5a07	-0.16733561
195	0xbd8a18e8	-0.06743032
196	0xbde12ed9	-0.109952636
197	0x3e5c8acf	0.21537326
198	0x3e9f1d47	0.31077024
199	0x3e094b83	0.13407712
200	0xbdd33dd6	-0.10314529
201	0x3e564ab9	0.20926942
202	0xbe179dd8	-0.14806306
203	0x3dd361bd	0.103213765
204	0xbdcad1f6	-0.09903328
205	0xbe7393c0	-0.23786831
206	0x3e09d455	0.13459904
207	0xbd43338e	-0.04765659
208	0xbd934ba2	-0.0719216
209	0x3d009d57	0.03140005
210	0x3ea71e5d	0.32640353
211	0xbc92b75c	-0.017909698
212	0xbd22350d	-0.039601374
213	0xbd2fc3a4	-0.042911187
214	0x3dc09319	0.09403057
215	0x3dab1835	0.083542265
216	0x3db99704	0.09062007
217	0xbde330e1	-0.11093307
218	0x3ebfd1e8	0.37464833
219	0xbd11c71d	-0.03559028
220	0x3dec6068	0.115418255
221	0x3d8e2614	0.069408566
222	0xbe96350f	-0.29337355
223	0xbe79b9cf	-0.24387287
224	0x3d109391	0.03529698
225	0x3dc770c1	0.09738303
226	0xbe5ce2eb	-0.21570937
227	0x3daa59bc	0.08317897
228	0x3e5f27a2	0.21792462
229	0xbecf20af	-0.40454623
230	0xbe16e342	-0.1473513
231	0xbd70df24	-0.058806553
232	0x3e1c9518	0.1529125
233	0xbdfdc5f7	-0.123912744
234	0xbe011a4d	-0.12607689
235	0xbd7dd5ed	-0.061971594
236	0xbe0ae1d1	-0.13562705
237	0x3e437f76	0.19091591
238	0x3dea2f51	0.11434806
239	0x3ddfa9fb	0.10921093
240	0xbed14618	-0.4087379
241	0x3ddbe112	0.10736288
242	0xbd1078fa	-0.035271622
243	0xbe08b478	-0.13350093
244	0x3ea816c7	0.32829878
245	0xbebd2902	-0.3694535
246	0xbe9a6397	-0.30154106
247	0x3dcc5e2e	0.09978901
248	0xbc2c9f75	-0.010536064
249	0x3e86c8e0	0.2632513
250	0x3e1a5822	0.15072682
251	0x3ca962a3	0.020676916
252	0x3c81ad41	0.015829684
253	0x3e450a32	0.1924217
254	0x3d8dcce7	0.06923848
255	0x3d895bb5	0.06706945

base.mlp.fc_h.0.bias f4 [64]
0	0x00000000	0.0
1	0x00000000	0.0
2	0x00000000	0.0
3	0x00000000	0.0
4	0x00000000	0.0
5	0x00000000	0.0
6	0x00000000	0.0
7	0x00000000	0.0
8	0x00000000	0.0
9	0x00000000	0.0
10	0x00000000	0.0
11	0x00000000	0.0
12	0x00000000	0.0
13	0x00000000	0.0
14	0x00000000	0.0
15	0x00000000	0.0
16	0x00000000	0.0
17	0x00000000	0.0
18	0x00000000	0.0
19	0x00000000	0.0
20	0x00000000	0.0
21	0x00000000	0.0
22	0x00000000	0.0
23	0x00000000	0.0
24	0x00000000	0.0
25	0x00000000	0.0
26	0x00000000	0.0
27	0x00000000	0.0
28	0x00000000	0.0
29	0x00000000	0.0
30	0x00000000	0.0
31	0x00000000	0.0
32	0x00000000	0.0
33	0x00000000	0.0
34	0x00000000	0.0
35	0x00000000	0.0
36	0x00000000	0.0
37	0x00000000	0.0
38	0x00000000	0.0
39	0x00000000	0.0
40	0x00000000	0.0
41	0x00000000	0.0
42	0x00000000	0.0
43	0x00000000	0.0
44	0x00000000	0.0
45	0x00000000	0.0
46	0x00000000	0.0
47	0x00000000	0.0
48	0x00000000	0.0
49	0x00000000	0.0
50	0x00000000	0.0
51	0x00000000	0.0
52	0x00000000	0.0
53	0x00000000	0.0
54	0x00000000	0.0
55	0x00000000	0.0
56	0x00000000	0.0
57	0x00000000	0.0
58	0x00000000	0.0
59	0x00000000	0.0
60	0x00000000	0.0
61	0x00000000	0.0
62	0x00000000	0.0
63	0x00000000	0.0

base.mlp.fc_h.2.weight f4 [64]
0	0x3f800000	1.0
1	0x3f800000	1.0
2	0x3f800000	1.0
3	0x3f800000	1.0
4	0x3f800000	1.0
5	0x3f800000	1.0
6	0x3f800000	1.0
7	0x3f800000	1.0
8	0x3f800000	1.0
9	0x3f800000	1.0
10	0x3f800000	1.0
11	0x3f800000	1.0
12	0x3f800000	1.0
13	0x3f800000	1.0
14	0x3f800000	1.0
15	0x3f800000	1.0
16	0x3f800000	1.0
17	0x3f800000	1.0
18	0x3f800000	1.0
19	0x3f800000	1.0
20	0x3f800000	1.0
21	0x3f800000	1.0
22	0x3f800000	1.0
23	0x3f800000	1.0
24	0x3f800000	1.0
25	0x3f800000	1.0
26	0x3f800000	1.0
27	0x3f800000	1.0
28	0x3f800000	1.0
29	0x3f800000	1.0
30	0x3f800000	1.0
31	0x3f800000	1.0
32	0x3f800000	1.0
33	0x3f800000	1.0
34	0x3f800000	1.0
35	0x3f800000	1.0
36	0x3f800000	1.0
37	0x3f800000	1.0
38	0x3f800000	1.0
39	0x3f800000	1.0
40	0x3f800000	1.0
41	0x3f800000	1.0
42	0x3f800000	1.0
43	0x3f800000	1.0
44	0x3f800000	1.0
45	0x3f800000	1.0
46	0x3f800000	1.0
47	0x3f800000	1.0
48	0x3f800000	1.0
49	0x3f800000	1.0
50	0x3f800000	1.0
51	0x3f800000	1.0
52	0x3f800000	1.0
53	0x3f800000	1.0
54	0x3f800000	1.0
55	0x3f800000	1.0
56	0x3f800000	1.0
57	0x3f800000	1.0
58	0x3f800000	1.0
59	0x3f800000	1.0
60	0x3f800000	1.0
61	0x3f800000	1.0
62	0x3f800000	1.0
63	0x3f800000	1.0

base.mlp.fc_h.2.bias f4 [64]
0	0x00000000	0.0
1	0x00000000	0.0
2	0x00000000	0.0
3	0x00000000	0.0
4	0x00000000	0.0
5	0x00000000	0.0
6	0x00000000	0.0
7	0x00000000	0.0
8	0x00000000	0.0
9	0x00000000	0.0
10	0x00000000	0.0
11	0x00000000	0.0
12	0x00000000	0.0
13	0x00000000	0.0
14	0x00000000	0.0
15	0x00000000	0.0
16	0x00000000	0.0
17	0x00000000	0.0
18	0x00000000	0.0
19	0x00000000	0.0
20	0x00000000	0.0
21	0x00000000	0.0
22	0x00000000	0.0
23	0x00000000	0.0
24	0x00000000	0.0
25	0x00000000	0.0
26	0x00000000	0.0
27	0x00000000	0.0
28	0x00000000	0.0
29	0x00000000	0.0
30	0x00000000	0.0
31	0x00000000	0.0
32	0x00000000	0.0
33	0x00000000	0.0
34	0x00000000	0.0
35	0x00000000	0.0
36	0x00000000	0.0
37	0x00000000	0.0
38	0x00000000	0.0
39	0x00000000	0.0
40	0x00000000	0.0
41	0x00000000	0.0
42	0x00000000	0.0
43	0x00000000	0.0
44	0x00000000	0.0
45	0x00000000	0.0
46	0x00000000	0.0
47	0x00000000	0.0
48	0x00000000	0.0
49	0x00000000	0.0
50	0x00000000	0.0
51	0x00000000	0.0
52	0x00000000	0.0
53	0x00000000	0.0
54	0x00000000	0.0
55	0x00000000	0.0
56	0x00000000	0.0
57	0x00000000	0.0
58	0x00000000	0.0
59	0x00000000	0.0
60	0x00000000	0.0
61	0x00000000	0.0
62	0x00000000	0.0
63	0x00000000	0.0

base.mlp.fc2.0.0.weight f4 [64, 64]
0	0x3ddda714	0.10822883
1	0x3e66e201	0.22547151
2	0x3d5aa404	0.053379074
3	0xbf16f14a	-0.5896193
4	0xbc75db19	-0.01500585
5	0x3e63d3e7	0.22248803
6	0xbe0dcb10	-0.13846993
7	0xbd7005ed	-0.0585994
8	0xbe743dbb	-0.23851673
9	0x3e5b198e	0.21396467
10	0x3df38c9d	0.11892054
11	0xbe9707dc	-0.29498184
12	0xbd0f450c	-0.034977958
13	0x3e85d35a	0.2613781
14	0x3e3ed41e	0.18635604
15	0xbdc83278	-0.09775251
16	0x3e4a09b6	0.19730267
17	0x3df71da7	0.120662026
18	0xbd52ed50	-0.05149585
19	0x3d9d8db8	0.07693046
20	0xbed72bde	-0.42025656
21	0x3e3c09ab	0.18363063
22	0xbe6cf7e0	-0.23141432
23	0x3df49ca0	0.11943936
24	0xbe2bc6c4	-0.16775042
25	0x3df938e9	0.12169058
26	0xbe2d84c9	-0.16945185
27	0xbe2223aa	-0.15833917
28	0x3e8a63d5	0.2702929
29	0xb964ad35	-0.00021808299
30	0x3d714706	0.058905624
31	0xbcf541f5	-0.029938677
32	0xbebea330	-0.37233877
33	0xbe872e91	-0.26402715
34	0x3e1267af	0.14297365
35	0x3da6e5b8	0.08149284
36	0xbe06af53	-0.13152818
37	0x3c8c1372	0.017099116
38	0xbdae491a	-0.08510037
39	0x3bdbfb9a	0.006713343
40	0x3e4cdb14	0.20005447
41	0xbd9c07c6	-0.0761867
42	0x3eba1328	0.3634274
43	0xbc710cdd	-0.0147125395
44	0x3d775713	0.060385775
45	0x3d8191c9	0.063266344
46	0xbdf37d76	-0.11889164
47	0x3da45157	0.08023327
48	0x3d011548	0.031514436
49	0x3db9be6f	0.090695255
50	0x3cd7a961	0.026325883
51	0xbe15c8e1	-0.1462741
52	0xbb200f81	-0.0024423304
53	0x3dc31611	0.09525693
54	0xbea31ec6	-0.31859416
55	0xbd5f2069	-0.054474268
56	0x3e6c87b7	0.23098646
57	0x3e1e9a2c	0.154885
58	0xbdaac797	-0.0833885
59	0x3d4c195e	0.04982888
60	0x3d8a67ff	0.06758117
61	0x3e2b7982	0.1674557
62	0x3dc1e4f5	0.09467498
63	0xbd7cbd39	-0.061703894
64	0x3e903819	0.281678
65	0x3ddefbd1	0.10887874
66	0xbe982ed1	-0.29723218
67	0xbe043e92	-0.12914494
68	0xbec6b0cb	-0.38806757
69	0xbe4a1655	-0.19735081
70	0xbdce3f79	-0.100707
71	0xbe01ec32	-0.12687758
72	0x3e0b7170	0.13617492
73	0x3ce9140a	0.028451938
74	0xbe1291e9	-0.14313473
75	0xbe8d71e8	-0.27625966
76	0xbdec86f8	-0.11549181
77	0x3cd7fe78	0.026366457
78	0xbe1fdf14	-0.15612441
79	0x3e6f0998	0.23343503
80	0x3d8d70d2	0.069062844
81	0xbe0ffa7c	-0.14060396
82	0xbe44b4a1	-0.1920953
83	0xbd566ec1	-0.052351717
84	0xbe660532	-0.2246292
85	0xbe5ca47f	-0.21547125
86	0x3e7debb3	0.24796943
87	0x3e40c869	0.1882645
88	0xbe3a9fca	-0.18225017
89	0x3da6f610	0.081524014
90	0xbd961017	-0.07327288
91	0xbcf79b38	-0.030225381
92	0x3e166631	0.1468742
93	0x3e90de6a	0.28294688
94	0xbb7fc3e7	-0.003902668
95	0xbe2a2b93	-0.16618185
96	0x3dcb4b6a	0.099264935
97	0xbddae1a9	-0.106875725
98	0x3da8a964	0.08235434
99	0x3e5f7fc3	0.21826081
100	0x3e6eacd9	0.23308124
101	0x3bdca7d2	0.006733873
102	0xbe55fd86	-0.20897493
103	0xbdb2753c	-0.08713767
104	0xbe2d86cf	-0.16945957
105	0xbe049906	-0.12948999
106	0x3e7cf1a0	0.24701548
107	0x3dc0484b	0.09388789
108	0x3e03a90a	0.12857452
109	0xbe5a1c22	-0.21299794
110	0xbda99d92	-0.08282007
111	0x3e2f0a4e	0.17093775
112	0xbd829011	-0.06375135
113	0x3ea8c5f6	0.32963532
114	0x3e0f6d6f	0.1400659
115	0xbdb03d04	-0.08605388
116	0x3d948b06	0.07253079
117	0xbe5d775b	-0.21627562
118	0x3e82be61	0.25535873
119	0x3e9b276d	0.30303517
120	0xbd019474	-0.031635717
121	0xbea38ebd	-0.31944838
122	0xbdcd68e5	-0.10029773
123	0x3e7db0d0	0.2477448
124	0xbe319e98	-0.17345655
125	0xbb47a08c	-0.0030460684
126	0x3a6459ac	0.0008710872
127	0x3ddced19	0.1078741
128	0x3d2755a0	0.040853143
129	0x3e97d0bb	0.29651436
130	0x3e75e140	0.24011707
131	0x3e10cde9	0.14141048
132	0xbe85912c	-0.2608732
133	0xbe2e4490	-0.17018342
134	0xbd324210	-0.043520033
135	0xbeb54700	-0.3540573
136	0xbeb370f9	-0.3504713
137	0x3e1112ff	0.14167403
138	0xbcc2e467	-0.023790551
139	0x3e064052	0.13110474
140	0xbe00ab04	-0.12565237
141	0xbd7433a2	-0.059619553
142	0xbd9447f0	-0.072402835
143	0x3dccd4c8	0.10001522
144	0x3dac82ad	0.08423362
145	0x3e1f7dff	0.15575407
146	0x3d8b7008	0.06808478
147	0xbd2ac0b2	-0.041687675
148	0x3d944306	0.07239346
149	0xbe14752b	-0.14497821
150	0xbe4c3527	-0.19942151
151	0xbe5bc01c	-0.21460003
152	0xbd9256e6	-0.07145481
153	0x3c269189	0.010166534
154	0x3d90ebc7	0.07076221
155	0x3d566bdd	0.05234896
156	0x3e9fee87	0.3123667
157	0x3d891a29	0.06694443
158	0xbc3db41b	-0.011578585
159	0xbae74eda	-0.0017647401
160	0x3e7317a7	0.23739491
161	0x3ca44d24	0.020056315
162	0xbeb545d3	-0.35404834
163	0xbe157b29	-0.14597763
164	0x3df55caa	0.11980565
165	0x3bafb6b6	0.005362357
166	0x3dce8293	0.10083499
167	0xbdb71c16	-0.08940904
168	0x3cd132cb	0.025536915
169	0x3d996d5a	0.0749156
170	0x3e71a812	0.2359927
171	0xbd65e7ee	-0.05612939
172	0xbe224051	-0.15844847
173	0xbe04f27c	-0.12983125
174	0xbeecf40e	-0.4627995
175	0xbe36cba2	-0.17851117
176	0xbc4c8d82	-0.01248491
177	0x3e47f7f0	0.19528174
178	0xbea0ead9	-0.31429175
179	0x3e414e26	0.18877468
180	0xbde18106	-0.110109374
181	0x3e53e213	0.20691709
182	0x3e5b8a86	0.21439561
183	0x3e82dc6a	0.25558788
184	0x3dc28c64	0.09499434
185	0x3ebd6686	0.36992282
186	0x3ecb5cc1	0.39719203
187	0xbe42165d	-0.18953843
188	0x3dabc8e8	0.08387929
189	0xbd3e67a0	-0.046485543
190	0x3e53ada2	0.20671704
191	0xbe2e7fb3	-0.17040901
192	0xbe10c18e	-0.14136335
193	0x3d2177c3	0.039420854
194	0xbe3b9e4e	-0.18322107
195	0xbd8cddcc	-0.06878242
196	0xbdf3a88d	-0.11897383
197	0x3e7f1178	0.24909008
198	0x3eba7653	0.364184
199	0x3e248f5d	0.16070314
200	0xbdb02446	-0.086006686
201	0x3e4125e4	0.1886211
202	0xbdc822cc	-0.09772262
203	0x3e06c77e	0.13162038
204	0xbd11ebe6	-0.03562536
205	0xbe7ee630	-0.24892497
206	0x3e68f39d	0.22749181
207	0xbd5e53f2	-0.054279275
208	0xbd50867c	-0.050909504
209	0x3db14156	0.0865504
210	0x3ea33ba7	0.3188145
211	0xbc078cd9	-0.008273327
212	0xbd9c79ed	-0.07640443
213	0xbc4b4fa9	-0.012409129
214	0x3dfef4bb	0.124490224
215	0x3dba92e3	0.09110048
216	0x3e03edc5	0.1288367
217	0xbd7d5f53	-0.061858486
218	0x3eb4ba5b	0.35298428
219	0x3a8b8f1c	0.0010647508
220	0x3e16c3ab	0.14723079
221	0x3deed9cf	0.116626374
222	0xbe58bb1a	-0.21165124
223	0xbe5e4042	-0.217042
224	0xbcb41b02	-0.021985535
225	0x3dc9bf79	0.09850974
226	0xbe1aebc2	-0.15128997
227	0x3d8f59e4	0.06999567
228	0x3e84a53c	0.25907314
229	0xbeda25b4	-0.4260689
230	0xbe1ce7d4	-0.1532281
231	0xbd86dbe0	-0.065849066
232	0x3e1fcf01	0.1560631
233	0xbdcddbdb	-0.100517
234	0xbd828675	-0.06373302
235	0xbd6a25dc	-0.05716501
236	0xbdb5e06f	-0.08880698
237	0x3e34aec0	0.17644787
238	0x3dddb8aa	0.108262375
239	0x3dc19b99	0.09453506
240	0xbeed7776	-0.46380204
241	0x3e3a2649	0.18178667
242	0xbb507869	-0.0031810051
243	0xbdd9f8af	-0.10643136
244	0x3e96cfa6	0.29455298
245	0xbeaefe2f	-0.34178302
246	0xbe8dac70	-0.27670622
247	0x3e039564	0.12849957
248	0xbcc9a16e	-0.024613108
249	0x3e83c0e8	0.25733113
250	0x3e1d23ca	0.15345684
251	0x3d100107	0.03515723
252	0x3d3f7694	0.046743944
253	0x3e5d1636	0.21590504
254	0x3e0196be	0.1265516
255	0x3dcb1442	0.09915973

base.mlp.fc2.0.0.bias f4 [64]
0	0xbd1a7acb	-0.03771476
1	0xbca4183d	-0.020031089
2	0x3c4f38fb	0.012647863
3	0xbd948bdf	-0.07253241
4	0xbcdc88bb	-0.026920667
5	0x3e79d242	0.24396613
6	0xbbad4e0f	-0.0052888463
7	0xbcede1fa	-0.029038418
8	0xbcad739c	-0.02117329
9	0xbd2eaec0	-0.042647123
10	0xbd279517	-0.040913668
11	0x3d911545	0.07084135
12	0x3ce4bdf0	0.0279226
13	0xbca45bf5	-0.02006338
14	0xbbb0f6bc	-0.005400507
15	0x3ce18223	0.027527874
16	0x3affd017	0.0019516972
17	0xbc64a794	-0.013955969
18	0xbd474cde	-0.04865729
19	0xbc0eae64	-0.00870857
20	0xbcb197ac	-0.021678768
21	0xbc23f6bf	-0.010007559
22	0x3d005a1a	0.031335928
23	0xbdbccc33	-0.092186354
24	0x3cc741e7	0.024323417
25	0x3cd4b32c	0.025964342
26	0x3cf0e452	0.029405747
27	0x3c059f9e	0.0081557315
28	0x3c5f15ea	0.013616065
29	0xbd21c678	-0.039495915
30	0xbc023901	-0.007948161
31	0xbc1916e5	-0.009343837
32	0x3b927e04	0.0044705886
33	0x3cdaddb9	0.026717054
34	0x3b7e1b1c	0.0038773483
35	0xbd204d15	-0.03913601
36	0x3c4e7639	0.012601429
37	0xbbb54f0b	-0.0055331043
38	0x3c572cbf	0.013133227
39	0xbd8f5b21	-0.06999803
40	0x3d18ce33	0.037306022
41	0xbd262857	-0.040565815
42	0x3cd34170	0.025788039
43	0x3c13d778	0.00902354
44	0x3d0f60f8	0.035004586
45	0xbc8c6501	-0.017138006
46	0xbbcf5afb	-0.0063279844
47	0xbcdc3e8a	-0.02688529
48	0xbcb45b9a	-0.022016335
49	0xbb242f33	-0.0025052547
50	0xba497c29	-0.0007686043
51	0xbce67c77	-0.028135521
52	0x399184de	0.0002775555
53	0xbd9d057e	-0.07667063
54	0x3c9932e9	0.018701034
55	0xbc4e32f4	-0.01258539
56	0xbd0e6def	-0.03477281
57	0xbb209dd3	-0.0024508133
58	0xbd4f4f10	-0.05061251
59	0xbdb3176c	-0.08744702
60	0xbc8019f1	-0.01563737
61	0xbd02b39c	-0.03190957
62	0x3d72e9d9	0.059305046
63	0xbd125120	-0.035721898

base.mlp.fc2.0.2.weight f4 [64]
0	0x3f721b34	0.9457276
1	0x3f690a4a	0.91031325
2	0x3f86614b	1.0498441
3	0x3f829e55	1.0204569
4	0x3f60c294	0.877969
5	0x3f63e273	0.8901741
6	0x3f747dad	0.95504266
7	0x3f94b690	1.1618214
8	0x3f7ab88b	0.9793784
9	0x3f882185	1.0635229
10	0x3f80d090	1.0063648
11	0x3f97e064	1.1865354
12	0x3f82963b	1.0202097
13	0x3f77da6a	0.9681765
14	0x3f91f32c	1.1402335
15	0x3f81533f	1.010353
16	0x3f7fa924	0.99867463
17	0x3f74b032	0.9558135
18	0x3f81af41	1.0131608
19	0x3f846c26	1.0345504
20	0x3f80a697	1.0050839
21	0x3f81d589	1.0143291
22	0x3f8c9628	1.0983324
23	0x3f823f44	1.0175557
24	0x3f9895c9	1.1920711
25	0x3f8bb041	1.0913163
26	0x3f8a71c1	1.0815965
27	0x3f8834f1	1.0641156
28	0x3f87038c	1.0547957
29	0x3f81b0da	1.0132096
30	0x3f750af4	0.9571984
31	0x3f95ba3c	1.1697459
32	0x3f9cd7ac	1.2253318
33	0x3f86a965	1.0520445
34	0x3f8fc39a	1.1231568
35	0x3f7ab7ad	0.97936517
36	0x3f813c73	1.0096573
37	0x3f818eb6	1.0121677
38	0x3f88089f	1.0627631
39	0x3f787108	0.9704747
40	0x3f91db5e	1.139507
41	0x3f777298	0.9665923
42	0x3f9b456c	1.2130561
43	0x3f84ffb0	1.039053
44	0x3f6d59e6	0.927153
45	0x3f857076	1.0424945
46	0x3f786302	0.97026074
47	0x3f8eafdf	1.1147422
48	0x3f79edb2	0.9762832
49	0x3f8a0fd7	1.0786084
50	0x3f8d260f	1.102724
51	0x3f814616	1.0099514
52	0x3f80894c	1.00419
53	0x3f84d289	1.037675
54	0x3f8613ff	1.0474852
55	0x3f839e28	1.028264
56	0x3f7bc6c7	0.98350185
57	0x3f82eb1e	1.0228002
58	0x3f7d0b29	0.98845154
59	0x3f686c7f	0.9079055
60	0x3f8347f7	1.0256337
61	0x3f82d6fa	1.0221856
62	0x3f8a6280	1.081131
63	0x3f80c233	1.0059265

base.mlp.fc2.0.2.bias f4 [64]
0	0x3d74a633	0.059728812
1	0x3d62f8b4	0.055412963
2	0xbd2a9b31	-0.04165191
3	0xbc3e212b	-0.011604588
4	0x3d25ec13	0.04050834
5	0xbdd223da	-0.102607444
6	0x3c9a7b2a	0.018857557
7	0x3dadb995	0.084826626
8	0x3df1defd	0.1181011
9	0xbdce6362	-0.100775495
10	0xbd4bac13	-0.04972465
11	0x3d8a0e68	0.06741029
12	0x3bf8c8d0	0.007592298
13	0xbd693a24	-0.056940213
14	0x3dd0ae9c	0.10189554
15	0x3b0b3284	0.0021239826
16	0xbd818946	-0.06325011
17	0xbdf0a7da	-0.11750765
18	0xbd1ccbd4	-0.038280323
19	0xbc8d58e0	-0.017254293
20	0xbd278e03	-0.040906917
21	0x3c474df9	0.012164586
22	0xbd80558d	-0.062663175
23	0xbd2e73c1	-0.04259086
24	0x3de5e7c6	0.11225848
25	0x3db269f3	0.087116145
26	0xbcf4e913	-0.029896295
27	0x3da00a88	0.07814509
28	0xbd536319	-0.05160818
29	0xbcb7b2c9	-0.022424119
30	0xbd66d3ec	-0.05635445
31	0x3dee9643	0.11649754
32	0x3e0101bf	0.12598322
33	0x3abd4fa7	0.0014443294
34	0x3db130c1	0.08651877
35	0xbd6d06c3	-0.057867777
36	0x3be58de2	0.007005439
37	0xbdb093c6	-0.086219355
38	0xbd5ae53d	-0.053441275
39	0x3c9736d1	0.018458756
40	0x3ddea670	0.10871589
41	0x3c7e1d25	0.015509878
42	0x3dced03b	0.100983106
43	0xbdb77648	-0.08958107
44	0xbde9b64e	-0.11411725
45	0xbe0bafd0	-0.13641286
46	0xbc0fe8b8	-0.008783512
47	0x3ddf2825	0.10896329
48	0x3c800d64	0.015631385
49	0x3da12629	0.078686066
50	0x3dfd7d6a	0.123774365
51	0xbd138e97	-0.036024656
52	0xbdc1486d	-0.09437642
53	0xbcd21567	-0.025644971
54	0xbd29e7e4	-0.041480914
55	0xbd842135	-0.06451646
56	0xbd8db929	-0.06920082
57	0xb9ed3168	-0.00045240973
58	0xbcf62356	-0.030046146
59	0x3d619f21	0.055083398
60	0xbd3d820d	-0.046266604
61	0xbc46bb1a	-0.012129569
62	0x3d4c514a	0.04988221
63	0xbce5797b	-0.028012028

act.action_outs.0.linear.weight f4 [2, 64]
0	0xbbbb53cf	-0.005716778
1	0xb921d540	-0.00015433598
2	0xbdd0c57c	-0.10193917
3	0xbdac7775	-0.08421222
4	0xbcb61817	-0.022228284
5	0x3cf22f9b	0.029563716
6	0xbd142b20	-0.03617394
7	0x3c8057c8	0.015666857
8	0x3d75eac2	0.060038336
9	0xbdcdfbfc	-0.10057828
10	0xba4334f5	-0.0007446551
11	0x3e2924a6	0.16517887
12	0xbdabb332	-0.08383788
13	0x3cfaa71f	0.030597268
14	0x3d86d248	0.06583077
15	0x3da19922	0.07890536
16	0xbc22d7f8	-0.009939186
17	0xbcd2cac3	-0.02573145
18	0xbc895014	-0.016761817
19	0xbd8981e5	-0.067142285
20	0xbd8e4d0c	-0.06948289
21	0xbd74cc8b	-0.05976538
22	0xbdd4a5bd	-0.103831746
23	0xbd997c37	-0.07494395
24	0x3d8ffc08	0.07030493
25	0x3deeb413	0.1165544
26	0xbdbc082d	-0.09181247
27	0x3ceb84e0	0.028749883
28	0xbdd2edf7	-0.102992944
29	0xbd9a904d	-0.075470544
30	0xbd5995fb	-0.05312155
31	0x3e083c2f	0.13304208
32	0x3d86f031	0.065887816
33	0x3d414e79	0.047193978
34	0x3ceac0cf	0.028656391
35	0xbd955466	-0.07291488
36	0xbcb01588	-0.021494642
37	0xbd8807c4	-0.06642106
38	0xbdc883ce	-0.09790765
39	0x3c1458dc	0.009054389
40	0x3d5342e8	0.05157748
41	0xbd7acd4a	-0.061230935
42	0x3d853aa9	0.06505329
43	0xbcdd7e6c	-0.027037822
44	0xbc5ec36f	-0.0135964
45	0xbdd0c2f6	-0.10193436
46	0xbd8b229c	-0.067937106
47	0x3dfa6d33	0.12227859
48	0xbcfeb340	-0.031091332
49	0x3d964a08	0.07338339
50	0x3ddd4ad4	0.10805288
51	0xbb1a6190	-0.0023556687
52	0xbd4bc584	-0.049748912
53	0xbda555b6	-0.08072989
54	0xbdaff317	-0.085912876
55	0xbbd3f8ef	-0.006468884
56	0xbd3c9492	-0.046040125
57	0xbda4f91b	-0.080553256
58	0xbd7a7371	-0.06114525
59	0xbce5a659	-0.028033422
60	0xbdc7e7c3	-0.09761002
61	0xbd9c5ad6	-0.07634513
62	0x3d125e5d	0.035734523
63	0xbd6d82b1	-0.057985965
64	0x3b829d76	0.003986056
65	0x3a636d5f	0.00086756604
66	0x3dd0ad46	0.10189299
67	0x3daf5c98	0.08562583
68	0x3cc1a58f	0.023638515
69	0xbd01190f	-0.03151804
70	0x3d1635ab	0.036672276
71	0xbc806330	-0.015672296
72	0xbd7f12da	-0.062273838
73	0x3dc80c96	0.097680256
74	0x3b57d1ed	0.0032931522
75	0xbe2a3af6	-0.16624054
76	0x3dae51e8	0.08511716
77	0xbceb7bbc	-0.028745525
78	0xbd8eda1f	-0.06975197
79	0xbda30f68	-0.07961923
80	0x3c1dc143	0.009628597
81	0x3cce6c10	0.025198013
82	0x3c9d16f3	0.019175982
83	0x3d84423d	0.064579464
84	0x3d8fb5b9	0.07017083
85	0x3d73a13a	0.05947993
86	0x3dd2c68c	0.10291776
87	0x3d9bea8a	0.07613094
88	0xbd914b57	-0.07094448
89	0xbdecbc6c	-0.11559376
90	0x3dbaa3b0	0.09113252
91	0xbcf65832	-0.030071352
92	0x3dce48a6	0.1007245
93	0x3d9a5118	0.07534999
94	0x3d5d6223	0.05404867
95	0xbe069382	-0.13142207
96	0xbd87b68b	-0.06626614
97	0xbd37b81a	-0.044853307
98	0xbcd2839e	-0.025697526
99	0x3d969646	0.07352881
100	0x3cac7077	0.021049721
101	0x3d894bcf	0.067039125
102	0x3dc9474d	0.09828053
103	0xbc027255	-0.007961829
104	0xbd516ccd	-0.05112915
105	0x3d6e7664	0.058218375
106	0xbd8977e3	-0.0671232
107	0x3cd95de5	0.02653403
108	0x3c505885	0.012716417
109	0x3dd11895	0.10209767
110	0x3d8b4e27	0.06802016
111	0xbdfbd43c	-0.1229634
112	0x3d07c704	0.03314878
113	0xbd9bc407	-0.076057486
114	0xbddbc225	-0.107303895
115	0xbb247b19	-0.0025097786
116	0x3d45d676	0.04830023
117	0x3da64c99	0.081200786
118	0x3daeaf34	0.08529511
119	0x3bb3d7a1	0.0054883515
120	0x3d2efa80	0.042719364
121	0x3d9faa7e	0.07796191
122	0x3d79196e	0.060815267
123	0x3ce6131f	0.02808529
124	0x3dbe60d4	0.09295812
125	0x3d9dbafc	0.0770168
126	0xbd0de834	-0.034645274
127	0x3d6309cc	0.055429265

act.action_outs.0.linear.bias f4 [2]
0	0x3da0d788	0.07853609
1	0xbda0d784	-0.07853606

act.action_outs.1.linear.weight f4 [2, 64]
0	0x3cd814bf	0.02637708
1	0x3d0bf747	0.03417137
2	0xbd6821e3	-0.056672942
3	0xbd63ffa8	-0.055663735
4	0xbc998304	-0.01873923
5	0xbd06f243	-0.032945883
6	0xbd0f3402	-0.034961708
7	0x3d2c77a4	0.042106286
8	0x3cc0c439	0.023531066
9	0xbd9486a1	-0.07252241
10	0xbd76408b	-0.060120147
11	0x3e3482cc	0.1762802
12	0xbd587503	-0.052845966
13	0xbd4b0eb3	-0.049574565
14	0x3d99cf3c	0.0751023
15	0x3dd5c68b	0.1043826
16	0x3bd9ee95	0.0066507556
17	0xbd3b8fb2	-0.045791335
18	0xbd836e75	-0.064175524
19	0xbd4d8171	-0.050172273
20	0xbd2ca7dc	-0.04215227
21	0xbd783457	-0.06059679
22	0xbdd48b5a	-0.10378142
23	0xbd3a1add	-0.045435775
24	0x3db39c5f	0.0877006
25	0x3dc24afa	0.09486957
26	0xbdc5baab	-0.09654745
27	0x3d0bfd53	0.034177136
28	0xbcd3c3c4	-0.025850184
29	0xbd3768c4	-0.044777647
30	0xbd1fbf7a	-0.039000966
31	0x3e045386	0.12922487
32	0x3da19b06	0.078908965
33	0x3dbd2d8b	0.09237202
34	0x3d83f281	0.06442738
35	0xbcfb1bf6	-0.030652981
36	0x3d191e84	0.037382618
37	0xbd3c7cdf	-0.046017524
38	0xbd80118f	-0.06253349
39	0x3b23edd5	0.0025013585
40	0x3d70f9fb	0.05883215
41	0xbd2e3e8e	-0.042540126
42	0x3da63557	0.081156425
43	0x3cd8f9e6	0.026486348
44	0xbd091c29	-0.03347412
45	0xbcffb547	-0.03121437
46	0xbd390d59	-0.045178745
47	0x3deff198	0.11716002
48	0x3b302e80	0.0026883185
49	0x3d9a8057	0.0754401
50	0x3d42e163	0.047578227
51	0x3c98d9c9	0.018658536
52	0xbd393c34	-0.04522343
53	0xbd5e3b95	-0.05425604
54	0xbd82d4e9	-0.06388266
55	0x3c495fe8	0.012290932
56	0xbd216924	-0.03940691
57	0xbd255f24	-0.040373936
58	0xbd1addb7	-0.0378091
59	0xbc94f5ae	-0.018183555
60	0xbd520364	-0.051272765
61	0xbceefedf	-0.029174266
62	0x3d07f520	0.033192754
63	0xbcf83df7	-0.030302985
64	0xbccbadd5	-0.024863163
65	0xbd0ef1e2	-0.034898646
66	0x3d6b0c6d	0.057384897
67	0x3d65d7d3	0.05611403
68	0x3c8424a6	0.016130757
69	0x3cf44e63	0.029822534
70	0x3d110e32	0.03541393
71	0xbd200b62	-0.039073355
72	0xbcb8f325	-0.022576878
73	0x3d8f8c2d	0.07009158
74	0x3d78bf86	0.060729526
75	0xbe355a4a	-0.17710224
76	0x3d58287d	0.052772988
77	0x3d5be0df	0.05368125
78	0xbd97a5da	-0.074046806
79	0xbdd673a9	-0.10471279
80	0xbba5f31c	-0.0050643813
81	0x3d3f3b34	0.04668732
82	0x3d80fb00	0.062978745
83	0x3d493172	0.04911942
84	0x3d37ca0e	0.04487043
85	0x3d7e1dce	0.062040143
86	0x3dd4677d	0.10371301
87	0x3d3f953c	0.04677318
88	0xbdb4c862	-0.088272825
89	0xbdc39a41	-0.09550906
90	0x3dc2ea18	0.09517306
91	0xbcfa3434	-0.03054247
92	0x3cd4a8dd	0.025959427
93	0x3d2fbbf9	0.042903874
94	0x3d1a6236	0.037691317
95	0xbe02ff47	-0.12792693
96	0xbda311dd	-0.079623915
97	0xbdc231ef	-0.0948218
98	0xbd811fa1	-0.06304861
99	0x3d01021a	0.031496145
100	0xbd1bc0a2	-0.038025506
101	0x3d34a646	0.044103883
102	0x3d83d9b0	0.06438005
103	0xbb76ec13	-0.0037677332
104	0xbd79fff4	-0.06103511
105	0x3d34c758	0.04413542
106	0xbda6ea0f	-0.08150112
107	0xbcb9c525	-0.022677014
108	0x3d0e8df7	0.034803357
109	0x3d08f30a	0.033434905
110	0x3d3f4349	0.046695028
111	0xbdebefe4	-0.11520365
112	0xbb1dce6c	-0.0024079336
113	0xbd9407ec	-0.072280735
114	0xbd45fd74	-0.048337415
115	0xbcac2060	-0.021011531
116	0x3d3cdf24	0.04611124
117	0x3d5b2146	0.05349853
118	0x3d80d131	0.062899
119	0xbc1cdf2a	-0.009574691
120	0x3d199f8d	0.037505675
121	0x3d2cf6a9	0.04222742
122	0x3d0fe806	0.035133384
123	0x3c9136bf	0.0177263
124	0x3d5ac4d4	0.053410366
125	0x3ce23a87	0.027615799
126	0xbd0b94b1	-0.03407735
127	0x3d03cbdc	0.032176837

act.action_outs.1.linear.bias f4 [2]
0	0x3ced6f02	0.028983597
1	0xbced6efe	-0.02898359
