eval_env/results/run1/models/actor1.pt (torch, 72386 bytes, 20 tensors)

base.feature_norm.weight f4 [104]
000000 16 32 80 3f 5f 1b 72 3f df f3 ab 3f ab 4a a7 3f
       1.0015285 0.94573015 1.3433799 1.3069662
000010 52 43 a6 3f 80 83 80 3f 84 fd 78 3f 7c 3f 84 3f
       1.2989295 1.0040131 0.97261834 1.0331874
000020 27 7b 7f 3f c6 68 69 3f 61 4d 97 3f ff 06 8e 3f
       0.9979729 0.91175497 1.1820489 1.1095885
000030 49 4a 82 3f 48 d9 71 3f 53 12 80 3f a0 93 6b 3f
       1.017892 0.9447217 1.0005592 0.9202213
000040 38 e2 7d 3f 26 01 71 3f c2 87 6f 3f 05 fa 68 3f
       0.9917331 0.9414238 0.93566525 0.910065
000050 4d 4a 68 3f eb 9e 71 3f 57 f5 83 3f 5a 03 80 3f
       0.90738374 0.94383115 1.0309247 1.0001023
000060 83 c8 78 3f 79 69 81 3f de 6a 6c 3f 14 85 87 3f
       0.97180957 1.0110313 0.92350566 1.0587487
000070 5b 6d 7b 3f 71 d9 73 3f 01 56 80 3f 23 8d 73 3f
       0.9821374 0.95253664 1.0026246 0.9513723
000080 69 a4 84 3f f4 45 78 3f d3 ea 72 3f fc 0e 8e 3f
       1.0362674 0.9698174 0.94889563 1.1098323
000090 9a a9 84 3f 37 29 8a 3f 28 a8 81 3f ff 6e 79 3f
       1.0364258 1.0793828 1.0129442 0.9743499
0000a0 53 61 83 3f 37 5e 86 3f 3c 5a 83 3f 4e 9a 81 3f
       1.0264076 1.0497502 1.0261912 1.0125215
0000b0 53 5b 81 3f 50 f0 73 3f 50 03 74 3f 3e 54 75 3f
       1.0105995 0.9528856 0.95317554 0.9583167
0000c0 74 e6 68 3f 53 6c 6f 3f 96 f7 72 3f a6 c7 65 3f
       0.90976644 0.93524665 0.94909036 0.89757764
0000d0 9b 2c 84 3f 81 5d 82 3f f0 7b 6f 3f 0d 97 77 3f
       1.0326113 1.0184785 0.9354849 0.9671486
0000e0 b7 0c 6e 3f 69 02 74 3f 4c 22 71 3f 59 13 7a 3f
       0.9298815 0.9531618 0.9419296 0.9768577
0000f0 06 34 6c 3f c8 99 80 3f fe 79 64 3f f5 88 77 3f
       0.9226688 1.004693 0.89248645 0.96693355
000100 78 b1 63 3f f7 b4 69 3f 22 e6 66 3f 18 19 82 3f
       0.8894267 0.91291755 0.90194905 1.0163908
000110 46 3e 79 3f 6f c0 73 3f f9 ae 6d 3f fc c3 61 3f
       0.97360647 0.95215505 0.9284511 0.88189673
000120 97 fe 67 3f e8 19 7a 3f 62 c1 6c 3f bb a2 6f 3f
       0.9062285 0.9769578 0.9248258 0.9360768
000130 e6 0f 78 3f 39 ca 75 3f 09 7e 6e 3f fa 9a 6c 3f
       0.9689926 0.9601169 0.93161064 0.92423975
000140 db 24 73 3f ce 3c 77 3f 51 d3 67 3f 4c d6 80 3f
       0.9497811 0.96577156 0.9055682 1.0065398
000150 85 c3 72 3f 03 82 72 3f 7b 12 7c 3f 01 f4 6e 3f
       0.9482959 0.9472963 0.984657 0.9334107
000160 e4 1d 89 3f a3 e7 75 3f bc 64 6c 3f ef 34 5c 3f
       1.0712247 0.96056575 0.9234121 0.8601827
000170 44 91 7c 3f a6 41 79 3f 51 7b 70 3f 96 72 64 3f
       0.9865916 0.97365797 0.93938166 0.89237344
000180 ad 1e 6f 3f d1 a7 7d 3f 62 d2 7d 3f a6 21 67 3f
       0.9340618 0.9908419 0.99149144 0.9028572
000190 b3 83 5c 3f b5 9f 75 3f 0f a8 7f 3f 66 55 80 3f
       0.8613846 0.9594682 0.9986581 1.0026062

base.feature_norm.bias f4 [104]
000000 80 5c 8a 3d 9e 0e 9f bc 4e 41 8b 3c e4 7c e1 3c
       0.06755924 -0.01941615 0.016998913 0.027525373
000010 52 41 87 3c 11 05 bb bc 0a 7b 2f bd 30 59 c0 bc
       0.01651064 -0.022829564 -0.04284195 -0.023480028
000020 4b 97 85 3c 33 1e 05 3d 2d 94 0f 3c 49 13 8b bb
       0.016307494 0.032499503 0.008763355 -0.0042442423
000030 97 73 71 bd d9 c8 0c bc d0 9a 63 bd 65 2e b5 bb
       -0.058948126 -0.008592808 -0.055567563 -0.0055292123
000040 be 82 57 bb 7b df a2 3d f4 7f 3b ba ea b7 56 3d
       -0.0032884325 0.07952782 -0.00071525504 0.052421488
000050 f2 82 f8 b9 25 8b 90 3d ab 64 a9 bd 75 8c ab bc
       -0.00047399808 0.0705779 -0.08271154 -0.020940999
000060 7a 24 79 3d 82 d2 49 3c 0d f9 07 3d 81 88 70 bc
       0.060825802 0.012318255 0.033196498 -0.014680983
000070 51 96 47 bc 4d b8 51 bd a0 a7 1b 3d 38 8b d6 bb
       -0.012181834 -0.051201154 0.038001657 -0.006547358
000080 06 00 14 3c c8 93 8b 3c cb b3 33 3c d5 a7 0c 3d
       0.009033209 0.017038241 0.010968159 0.034339745
000090 bb 51 60 bc 10 27 a2 bb be ea 84 3c 9e a0 e0 3d
       -0.013691361 -0.0049485043 0.016225215 0.10968135
0000a0 69 4f 42 3d de c9 f1 ba f9 00 92 3d c4 17 86 3c
       0.047439013 -0.0018447002 0.07129092 0.016368754
0000b0 e3 a4 7c 3d 26 b1 83 3d 29 47 8b 3d df cb 99 3d
       0.061680686 0.06430273 0.06800682 0.075095885
0000c0 99 ce dd 3a d5 de 34 3d df 17 56 bd e5 8e 66 3b
       0.0016922533 0.04415782 -0.05226886 0.0035180387
0000d0 c1 1f 18 3c 5c e9 93 3d 53 1a aa bd 84 07 81 bd
       0.0092849145 0.07222244 -0.08305802 -0.063002616
0000e0 90 89 84 3c e9 2e b7 bd b2 eb 4c bb 8e 86 81 bd
       0.016178876 -0.08944494 -0.0031268415 -0.063244924
0000f0 b8 62 7c bd d8 6d 27 bd f0 66 45 bd 2c 85 d5 38
       -0.061617583 -0.04087624 -0.048193872 0.00010181437
000100 6b 1e a3 bd 4a b0 1c ba 81 ba dd bc 4d 37 ee bc
       -0.07964786 -0.0005977197 -0.027066471 -0.029079104
000110 a8 85 55 bd 1b fd 2d 3d 33 0e e4 bd bd 3a 23 bd
       -0.052129418 0.04247771 -0.11135521 -0.03985094
000120 1a e9 09 be c7 24 94 3c 70 c9 72 bd 77 73 bc bd
       -0.13467827 0.018083943 -0.059274137 -0.09201711
000130 0b 51 c3 bc f2 45 32 bd 49 b1 96 3d 14 09 a9 3c
       -0.023842355 -0.043523736 0.07358033 0.020634212
000140 71 f2 e2 bc 50 f0 64 bd e3 2a 80 bb 4c 45 47 3d
       -0.027703496 -0.055893242 -0.0039113625 0.04865007
000150 f0 54 82 3b 0e 03 e4 bc ba 4c f2 3c c4 8b bc bc
       0.0039774105 -0.027833488 0.029577602 -0.023015864
000160 46 2e fc bb 7e 34 ce bc 04 d4 30 bc 03 68 67 3c
       -0.007695946 -0.025171515 -0.010792736 0.014123919
000170 0a 7e c8 3b 81 20 27 bd d0 8b 58 bd 95 98 ec bc
       0.0061185407 -0.040802483 -0.05286771 -0.02888135
000180 64 a2 4d bd 31 b4 cf ba 0f 2f 9f 3c c8 34 e7 bb
       -0.050203696 -0.0015846548 0.019431619 -0.0070558526
000190 d9 8b 21 bd 2b 9c 81 bd 75 02 5b 3d 23 76 fc bb
       -0.03944001 -0.06328615 0.05346914 -0.0077045127

base.mlp.fc1.0.weight f4 [64, 104]
000000 1d 1f f6 3d 88 0f 46 be 26 33 6b 3d 8d ac 07 3e
       0.12017653 -0.19341862 0.057421826 0.13249417
000010 a0 35 e2 3d 78 82 95 bd 12 06 00 3e 76 d3 28 3e
       0.110453844 -0.073002756 0.12502316 0.16486916
000020 b1 93 73 bd c8 b3 93 3e 6c 3e cd 3d bc f6 b1 3d
       -0.05946702 0.288481 0.10021672 0.08689639
000030 9c 46 c1 bd fd c6 93 3d 08 09 33 3e 85 b9 2b be
       -0.09437296 0.072156884 0.17483914 -0.16769989
000040 5d a5 0d 3e 4b 3f 72 bd fe 20 78 bd 1c 4a cf 3d
       0.13832612 -0.059142392 -0.06057834 0.10121557
000050 ac 9f c1 3d f5 8d 9f 3c 28 84 32 3e da 8d 16 be
       0.09454283 0.01947687 0.17433226 -0.1470255
000060 68 01 ab 3e 03 13 9e bd 38 4b 89 be 45 df 0c be
       0.3339951 -0.0771847 -0.268152 -0.13757046
000070 2a ac 2e be fd 90 07 3e 48 cf 14 bd a2 d0 b5 bd
       -0.17057863 0.13238902 -0.03633049 -0.08877684
000080 ab 41 34 be 65 93 73 be ad b6 99 3e 2f 4c 36 bd
       -0.17603175 -0.23786695 0.30022183 -0.044506248
000090 28 df 89 bd b9 d1 87 3d 8d 2f 70 be df 43 9f bd
       -0.06732017 0.06631798 -0.23455639 -0.07776617
0000a0 00 16 7e 3c 0b 37 94 be 4f ca 73 bc 80 ec a1 be
       0.015508175 -0.28948244 -0.014879777 -0.31625748
0000b0 16 e7 c3 be bf f6 aa 3d dc a3 ea bd 54 2d be bd
       -0.38262242 0.08347844 -0.11457035 -0.092859894
0000c0 ef 7e c9 3d 1d 04 5f bd 71 8a 6f bd c6 d7 83 3e
       0.09838664 -0.054447282 -0.058481637 0.2575056
0000d0 33 51 a6 3d 12 98 15 be 28 46 53 be b8 11 c9 bd
       0.08120956 -0.14608791 -0.20632231 -0.09817833
0000e0 cc cb bf be ff 9e 3e be 18 de 95 3d eb 81 3a 3d
       -0.37460172 -0.1861534 0.07317752 0.045534056
0000f0 60 7c 12 3d fd cd 4d bd ee d3 85 bd fc 27 ae bd
       0.035763144 -0.050245274 -0.06534563 -0.0850372
000100 94 e5 7d bd 3d 85 85 b9 a3 9a 76 3d fa 01 c7 3d
       -0.06198652 -0.00025467007 0.060206067 0.09717174
000110 4f f0 b6 bd 71 f8 78 3c f9 d7 9c 3d 56 52 01 3d
       -0.08932554 0.015195952 0.07658381 0.031572662
000120 be ad fd 3c 35 32 38 3e 26 d3 04 b9 8a 9b 23 3e
       0.030966636 0.17987902 -0.0001266716 0.15977302
000130 0a 71 0f be 80 18 bc bd 79 8e 43 3d 12 18 d8 3d
       -0.14007965 -0.091843605 0.047743294 0.10551466
000140 ca d0 c6 bd 06 b2 e6 bd a2 98 a6 bc 25 4b 80 be
       -0.09707792 -0.11264424 -0.020336453 -0.2505733
000150 43 37 56 3e de 37 06 3e 6c bc b8 bd 2b 8e ec 3c
       0.20919518 0.13107249 -0.090203136 0.028876385
000160 11 28 fc bd f0 7a ac bd d6 5b 22 3e c7 b3 cc bb
       -0.123123296 -0.08421886 0.15855345 -0.006247017
000170 d3 b4 1b be bc ba a1 bd 3d 28 21 3c 40 c8 a9 bd
       -0.15205698 -0.07896945 0.009836254 -0.08290148
000180 43 2a 0f 3e 7b 0a 2c 3d db 04 09 3e be 0c 9c bd
       0.13980965 0.042002182 0.13380758 -0.07619618
000190 9c cf 40 be 76 ea ac bd 56 74 0f 38 bb 87 de 3c
       -0.18829197 -0.084431574 3.4202203e-05 0.02716433
0001a0 a9 ff c7 bd d4 0d 8e bc 94 73 59 3e ea 9f aa bc
       -0.0976556 -0.017340578 0.21235496 -0.020828206
0001b0 83 03 92 3a 43 9b 8d bb 76 c5 62 be 1e 1c e2 3c
       0.0011139963 -0.004321487 -0.22145638 0.027601298
0001c0 b4 93 5c be 19 ea 49 3d 34 25 3d 3e c0 87 55 be
       -0.2154072 0.04929552 0.18471223 -0.20852566
0001d0 08 fc 34 bd 22 8a 63 3e 7e 76 02 bd 3c c5 e4 bb
       -0.04418567 0.22220662 -0.031851284 -0.00698152
0001e0 92 5a 9a bd cd 59 63 3e 2e 48 2d 3d 1a b0 4e 3c
       -0.07536806 0.22202225 0.042305164 0.012615228
0001f0 14 a6 b0 be 01 6e b9 3d db c8 b8 bd 47 bd 37 3e
       -0.34501708 0.09054185 -0.09022685 0.17943297
000200 03 a2 88 3e e8 6a 33 bc dc 09 34 3e 26 55 2e be
       0.26686105 -0.010950781 0.17581886 -0.17024669
000210 44 00 ba 3d 17 17 37 3e a0 86 ba 3d 08 b4 e8 3d
       0.09082082 0.17879902 0.09107709 0.11362463
000220 1d 50 0d 3e b1 f7 2a 3e c0 28 0c be 93 3c a0 be
       0.13800092 0.1669605 -0.1368742 -0.31296214
000230 23 49 9f bd cc dc b5 bc 74 4d fa bc 2d 97 c9 be
       -0.077776216 -0.02220001 -0.03055451 -0.3937315
000240 b2 9b 88 bd f4 4e d0 bd 7c 2f 0b be 9b 79 ba 3d
       -0.066703215 -0.10171309 -0.13592333 0.09105226
000250 b6 36 ec 3d 6d 08 ce bd 2c af 8c 3d 23 f4 af bd
       0.11533873 -0.10060201 0.06869349 -0.08591487
000260 6b fc 4e 3c 42 18 9d 3d 4d 72 a5 3d 63 7d 49 be
       0.012633423 0.076706424 0.08078442 -0.19676737
000270 51 ca 36 3e e3 98 58 be ba fd 36 3d 4b 48 16 3e
       0.17850615 -0.21152072 0.044675566 0.14676015
000280 f0 e3 73 3d 8c ec 2d be 5a 24 35 bd 22 89 4e bc
       0.05954355 -0.16984767 -0.04422412 -0.012605937
000290 f5 13 57 3c 48 3c 3b 3d 6c 1d 07 3d fe f0 85 3c
       0.013127317 0.045711786 0.032987043 0.016350266
0002a0 a2 e3 87 bd 90 47 15 3e 09 ea 29 be 68 83 30 3e
       -0.066352144 0.1457808 -0.16593184 0.17237628
0002b0 b2 72 ed bd 64 26 09 3e 38 6b 85 3d c4 e3 a0 bd
       -0.11594142 0.13393551 0.06514591 -0.07855943
0002c0 4b b0 a7 3e b1 af 11 be b7 8d ad bd a8 92 45 3e
       0.32751688 -0.14227177 -0.084742956 0.19294226
0002d0 f0 e0 20 3d 30 f1 ba 3d 4c b0 2a be 77 d9 b6 3d
       0.039277017 0.09128034 -0.16668814 0.08928197
0002e0 e4 ad 5b 3e bb cc f4 bd 29 51 24 bd be 9c 8a bd
       0.21453053 -0.11953112 -0.040116463 -0.067681774
0002f0 cf ea d2 3d e9 fd b8 bd 83 fd 11 3e 26 8b 38 be
       0.102986924 -0.090328045 0.14256863 -0.18021831
000300 fd b7 c6 be b1 34 22 bc 51 28 80 3e 2d 5a 15 be
       -0.38812247 -0.009900258 0.2503076 -0.1458518
000310 52 66 71 bd e8 bb 31 bd 3c 62 05 be 57 77 3e 3e
       -0.05893547 -0.043392092 -0.13025755 0.18600212
000320 3c f2 12 3e 1a d3 24 3e 7f a8 bc bc ae 08 ed bd
       0.14350218 0.16096154 -0.023029564 -0.11573921
000330 04 9f f5 bc bb ab 00 bd db 28 50 3e 2f 3f d5 bd
       -0.029983051 -0.031413775 0.20328085 -0.10412442
000340 34 bd ba 3b 20 72 11 3e 1b 85 af 3e ce 99 6d 3d
       0.0056988243 0.14203691 0.3428124 0.058008008
000350 3f 6a 61 3e 6a e8 f3 3d 10 09 67 3e 8a 90 7b be
       0.22013186 0.11909564 0.22562051 -0.24566856
000360 28 b9 10 3e 7a 53 dc bd 96 63 9f 3e 78 cd 83 bd
       0.14133132 -0.107581094 0.31130666 -0.064356744
000370 6c 83 34 3e 10 d6 ab 3d 31 52 8b bc 80 1f 96 3e
       0.17628258 0.083904386 -0.017006965 0.29320908
000380 03 86 63 3d 68 3d fa 3d 61 b1 99 3e 12 02 cd 3d
       0.055547725 0.122187436 0.30018142 0.100101605
000390 c9 a4 45 3c c5 b3 3e 3e 49 a2 76 3e db 58 45 3c
       0.012063214 0.18623264 0.24085344 0.012045111
0003a0 3f 98 fc bd ac 0a 4e 3d 94 d8 6e bd 8d e2 9a bd
       -0.12333726 0.050303146 -0.058312014 -0.075627424
0003b0 30 bb 8c bd 93 c1 05 be 24 49 43 bd 6a 92 07 be
       -0.06871641 -0.13062124 -0.047677174 -0.13239446
0003c0 82 2b ec bd d4 31 88 be 69 16 d6 3d 37 b9 76 be
       -0.11531736 -0.26600516 0.10453493 -0.24094091
0003d0 fe 77 67 be 6d 5d 12 be e1 22 5a bc c1 6d 66 be
       -0.22604367 -0.14293452 -0.01331398 -0.22502805
0003e0 e7 0f b3 bc 32 19 bf be f6 cc 0c be d5 98 21 3c
       -0.021858169 -0.3732391 -0.13750061 0.009863098
0003f0 ea f6 b9 bd 73 2e 98 bd 3f 85 1e be 33 27 8d be
       -0.09080298 -0.074307345 -0.15480517 -0.2756897

base.mlp.fc1.0.bias f4 [64]
000000 ce 26 c8 bc 17 9c ab 3b b6 16 97 bb 6f 83 b0 bc
       -0.024432566 0.005237113 -0.0046108617 -0.021547047
000010 da 40 03 3c 7c 07 d0 3c ca 28 ae bc da 9f 19 bd
       0.008011067 0.025394194 -0.021259684 -0.037505962
000020 1e 5a c0 bc 5b 5b 9e 39 3e f9 82 bd 50 c1 76 3c
       -0.023480471 0.00030204174 -0.063951954 0.015060738
000030 dd 4d a6 bb db e9 5a bc a2 f7 77 3c 1a a0 a0 bc
       -0.0050752 -0.01336142 0.015134724 -0.019607592
000040 e3 03 32 bd 93 16 2a b9 51 a5 41 bd 10 d6 2e bd
       -0.043460738 -0.00016220873 -0.0472768 -0.042684615
000050 9e e8 69 3c 6d 7d 22 bd 58 33 c4 bd 2f 23 7c 3c
       0.014276652 -0.039670397 -0.095801055 0.015389248
000060 0b f3 38 3c ff 33 74 bc 34 4d 01 bd e0 f2 f9 bc
       0.011288415 -0.014904975 -0.031567767 -0.03051132
000070 ea 78 97 3c a8 d8 d9 bc c8 50 01 3c 95 76 c7 bc
       0.018490274 -0.026592568 0.007892795 -0.024348537
000080 26 18 90 bc 6c 47 52 3c d1 10 49 bc 37 57 0d bd
       -0.01758964 0.012834411 -0.012272076 -0.034507003
000090 d4 7b e4 bc 75 82 d6 bb eb 40 5d bc dd 36 58 3c
       -0.027891077 -0.0065463134 -0.013504247 0.013196674
0000a0 11 21 4a bd 38 85 65 bd 2c c2 00 bd ea 4f dc bc
       -0.04934794 -0.05603525 -0.031435177 -0.026893575
0000b0 aa ee 0e bd 78 6e 5e bd 8d 2b a3 bc 1d 80 89 b8
       -0.034895577 -0.05430457 -0.019918228 -6.556532e-05
0000c0 e1 82 ff bb 11 ce 01 bd 8f 26 72 bc 1c 2a d6 3a
       -0.0077975844 -0.03169066 -0.014779701 0.0016339454
0000d0 9e 0d c1 bb 93 24 2d bc 4a eb 16 bd 64 01 ce bc
       -0.005891516 -0.010567802 -0.036845483 -0.025147147
0000e0 09 22 5b bc 35 05 69 bc a3 62 03 3e 27 df 39 ba
       -0.013374814 -0.014222433 0.12830596 -0.0007090442
0000f0 9a cb 2c bc 0c 5d 62 bc 00 4d 01 3c 5a e4 08 3b
       -0.010546589 -0.013816129 0.007891893 0.0020888061

base.mlp.fc1.2.weight f4 [64]
000000 0d cf 7b 3f d4 8c 71 3f 08 0d 8d 3f 0f de 76 3f
       0.9836281 0.9435551 1.1019602 0.96432585
000010 63 b0 87 3f 7c 1f 68 3f c1 57 68 3f a3 f7 83 3f
       1.0600704 0.9067304 0.907589 1.0309948
000020 fa 2a 77 3f ad d5 7f 3f 95 6a 62 3f e8 08 7a 3f
       0.9654995 0.9993542 0.8844388 0.9766984
000030 14 6d 6d 3f 27 a5 6d 3f 2d 35 7e 3f f2 e3 68 3f
       0.92744565 0.9283013 0.9929989 0.90972817
000040 4e 13 6d 3f 87 30 71 3f 3b 37 6d 3f bc 42 81 3f
       0.9260758 0.9421467 0.926624 1.0098491
000050 04 65 7a 3f 7a 9e 87 3f df 4c 7d 3f 37 2a 87 3f
       0.9781039 1.0595238 0.9894542 1.0559758
000060 38 1b 82 3f 6b b5 72 3f 49 a8 70 3f 01 f3 7c 3f
       1.0164557 0.9480807 0.9400678 0.98808295
000070 c4 d2 78 3f b4 09 73 3f f3 04 84 3f 2c 90 89 3f
       0.971966 0.9493668 1.031401 1.0747123
000080 55 07 8f 3f cc 89 7d 3f ee 43 76 3f 9a 76 65 3f
       1.1174113 0.99038386 0.961974 0.89634097
000090 2e fc 89 3f 0c 53 85 3f 18 aa 85 3f 0e c6 7c 3f
       1.0780084 1.0415969 1.0442533 0.9873971
0000a0 b3 dd 6e 3f e1 7e 7f 3f 61 89 70 3f ca 38 78 3f
       0.93307036 0.99802977 0.93959624 0.96961653
0000b0 31 08 6f 3f a3 be 76 3f bb 63 79 3f 26 be 71 3f
       0.93371874 0.9638464 0.974178 0.9443077
0000c0 1c 1b 96 3f f5 da 6b 3f 9b 10 86 3f 1e 28 6d 3f
       1.1727023 0.92130977 1.0473818 0.9263934
0000d0 f4 11 6b 3f eb 33 6c 3f f4 71 72 3f f5 10 7a 3f
       0.9182427 0.9226672 0.9470513 0.97682124
0000e0 af a4 8f 3f 37 13 85 3f 0f d2 94 3f 2c 08 6d 3f
       1.1222132 1.0396489 1.1626605 0.92590594
0000f0 ce d7 8e 3f 96 47 7a 3f 69 e2 6a 3f 3d 1c 87 3f
       1.1159608 0.9776548 0.91751724 1.0555493

base.mlp.fc1.2.bias f4 [64]
000000 ae 8b b5 bc 04 76 30 bd 8f 8b 62 bd 76 57 3a 3d
       -0.022161331 -0.0430813 -0.055308875 0.045493565
000010 8b b9 b4 bc 27 0d 9d 3d 11 61 84 bc 0d 65 c3 bc
       -0.02206113 0.07668524 -0.016159566 -0.023851896
000020 ff 64 20 3c d8 d0 64 bd 23 2f 2b 3d 4b 1a b2 3c
       0.009789704 -0.05586323 0.041793 0.021741053
000030 28 08 43 3d b7 fd 76 3c 5e 7e 23 bc 50 37 3a 3d
       0.0476152 0.015075139 -0.009978859 0.045462906
000040 0d 01 2d 3d 85 7c ae bc cf 53 a1 3d 87 5d 9c 3a
       0.04223733 -0.02129961 0.07877313 0.0011929729
000050 7e 3d 5f bb 78 33 c0 bc 4d 73 9e bc 1d 2b d6 3a
       -0.0034063752 -0.023462042 -0.01934209 0.0016339753
000060 d3 35 a3 bd b0 66 14 bc 7f d7 99 3c 4a 81 1b 3d
       -0.079692505 -0.009057686 0.018779514 0.037965097
000070 2b 39 58 3b 18 0a 80 bd f4 5e a2 3c 5f 5f 22 3d
       0.003299306 -0.06251925 0.019820668 0.039641734
000080 6a 1a bd bc ed 12 7c bc e7 ec 88 bc f3 95 70 3d
       -0.023083884 -0.015385372 -0.016714526 0.058736753
000090 52 1d bf 3c 7b 48 ce 3c d6 26 52 3b fc 45 d7 3b
       0.02332941 0.025181046 0.0032066605 0.006569622
0000a0 47 23 f2 3c 17 79 62 bd 85 bf a8 bc 66 2b 1c bb
       0.029557837 -0.05529126 -0.020599136 -0.0023829578
0000b0 b4 56 44 3d e9 66 60 bd 8b 8a ae 3c 9a 6c 37 3c
       0.04793425 -0.054785643 0.021306297 0.011195326
0000c0 65 e0 a8 bc ac de dc 3c d5 e1 02 3c a8 bd 11 3d
       -0.020614812 0.026961647 0.007988413 0.03558126
0000d0 7e 6d b4 3d a9 2d d1 3c 18 78 9d 3b 7b 34 f4 3c
       0.088099465 0.025534468 0.004805576 0.02981018
0000e0 51 ac 6e bd fe 88 31 bd 4a 6e 6e 3d 77 41 e4 3c
       -0.058269802 -0.043343537 0.05821065 0.027863247
0000f0 8c 62 c0 3b bd c9 e4 3a 14 a8 9e bb 61 f3 9b 3b
       0.0058711227 0.0017455142 -0.004841814 0.0047592376

base.mlp.fc_h.0.weight f4 [64, 64]
000000 f4 0a 08 3d ad cc 04 3d f1 df db bc 62 af 04 3d
       0.03321357 0.032421757 -0.026840182 0.03239382
000010 9a f2 a8 bd 4b 37 a4 3e 55 44 8a bd 2b 5a bd be
       -0.082493976 0.32073435 -0.067513146 -0.36982855
000020 ea 59 8e 3d 4e a7 d4 bd 3a fb c7 be 39 64 ce bd
       0.069507435 -0.10383473 -0.39058858 -0.1007771
000030 a0 e3 6c 3d 54 69 58 3e 70 97 ae 3d 07 26 5a bd
       0.057834268 0.2113393 0.08524978 -0.053258922
000040 7a f3 70 3e fe 63 2a 3e 25 88 6b be f6 f4 53 be
       0.23530379 0.16639706 -0.23001154 -0.20698914
000050 a6 a9 82 be ae 96 4f 3e 59 54 8e 3d 45 29 d6 3d
       -0.25520056 0.20272323 0.06949682 0.1045709
000060 e9 db 99 3c 98 25 21 3e 67 65 24 be 97 88 57 be
       0.01878162 0.15736997 -0.16054307 -0.21048199
000070 49 ad 8c 3e 4f e6 8f 3e ba 1e 2b be 72 e6 15 3e
       0.27475956 0.281054 -0.1671094 0.14638689
000080 e4 de db bd 39 b7 70 3d 2e a0 36 3e 3c bb 2c be
       -0.107358724 0.058768485 0.17834541 -0.16868299
000090 e9 1a a0 3d ba 2c 9f bd 54 50 2d 3e da df 64 3d
       0.07817633 -0.07772203 0.16925174 0.055877544
0000a0 ab a0 b9 3d 78 41 83 be 63 e1 23 3e 34 ef fd 3d
       0.09063848 -0.25635886 0.16003947 0.1239914
0000b0 8e 56 9e be df f4 87 be 3e 73 5e be 2f db e7 bc
       -0.3092541 -0.2655401 -0.21723649 -0.028302757
0000c0 02 50 70 3e 7d b2 4b 3a f0 fb a9 be 03 3b 0f be
       0.2346802 0.0007770432 -0.33200026 -0.13987355
0000d0 d0 fe 29 be 08 76 d9 3d da de 83 bc 93 6b 4a 3d
       -0.1660111 0.10618216 -0.016097475 0.049418997
0000e0 40 7b fc 3d bd 6c 74 be 88 d6 66 3c 81 84 ec 3d
       0.123281956 -0.23869605 0.014089234 0.115487106
0000f0 40 9a 77 3e c4 c0 1a 3b d8 b6 98 3e 0e 2e 03 bd
       0.24179935 0.0023613432 0.29827 -0.032026343
000100 33 40 4c 3e 87 fc ff 3c 76 5a 72 be 5f b9 dc 3d
       0.19946365 0.031248344 -0.2366732 0.10777544
000110 cb fb e8 bc 0c 47 25 be a5 6b 24 be b1 a0 4c 3e
       -0.028440377 -0.16140383 -0.16056688 0.19983174
000120 8d 62 a3 3d 1e 69 9b bd 8d 90 30 bd 43 23 2f 3e
       0.079777814 -0.07588409 -0.043106604 0.17103295
000130 20 6d 17 3e 14 05 be 3e 57 4a 28 3e 47 31 1d 3e
       0.14787722 0.3711325 0.16434608 0.15350829
000140 9f 1f 52 be 7b 66 b4 3d 6c c9 fb 3d b4 b2 41 3d
       -0.20519875 0.08808609 0.122942775 0.047289565
000150 ca 6e 80 bd f9 e8 6c 3e 03 cc a1 3c 43 9a 26 3d
       -0.06271131 0.23135747 0.0197506 0.04067446
000160 f3 0e 67 3e 0e 22 1c bd 16 24 86 be 17 8b b5 3c
       0.22564296 -0.038118415 -0.26199406 0.02216105
000170 b4 79 af 3d 5f 0b b0 3c 4e d8 05 3c 91 aa b0 bc
       0.08568135 0.021489797 0.008169247 -0.021565707
000180 78 25 01 3e 21 eb 71 3e a0 92 f6 bc f6 4c 91 be
       0.1261195 0.23624851 -0.030099213 -0.2837903
000190 2b f2 63 be f3 d4 da 3e 80 5e 81 3d 65 ba 1a bd
       -0.22260348 0.42740592 0.063168526 -0.037775416
0001a0 98 6b 1b 3e 83 37 fe bd e9 77 38 3e 81 6b a5 be
       0.15177763 -0.12412932 0.18014492 -0.3230858
0001b0 92 a8 1e 3e f2 9f 79 3e a9 e4 d9 3d 5c e9 52 3e
       0.15493992 0.2437742 0.106393166 0.20596832
0001c0 26 f9 42 be 2c ff 33 3e cd ca 31 3e 8c ea 69 be
       -0.19040355 0.17577809 0.17362519 -0.22843379
0001d0 f1 57 22 3e e0 75 aa bd 1a 9e 1b be 22 84 29 3e
       0.1585386 -0.08323264 -0.1519703 0.16554311
0001e0 49 39 61 3e c9 8a a2 3c 9c e0 c0 bd 56 f4 bf bd
       0.21994509 0.019841569 -0.09417841 -0.09372775
0001f0 76 c8 f4 3d 92 30 5d 3e bc d6 b1 3e b3 7e a6 3e
       0.119522974 0.2160056 0.34734142 0.3251854
000200 e0 31 c5 3d 11 96 3b 3e ac 4c 46 bd d3 38 d5 3d
       0.096286535 0.18318965 -0.048412964 0.10411229
000210 30 03 b9 3d 66 db bf 3d 01 c9 ec 3d c3 24 dc 3e
       0.09033811 0.09368019 0.11561776 0.42996797
000220 79 ac 8e bd e9 a3 92 be f4 25 2a be d1 b4 a1 be
       -0.0696649 -0.2864068 -0.1661604 -0.31583264
000230 9c 7d c3 3d 07 85 a0 3d 69 34 8f 3d 2a 34 48 3b
       0.095454425 0.07837873 0.06992418 0.003054867
000240 55 e9 49 bd 86 93 9d bd 06 84 0f bd bb 38 56 be
       -0.04929479 -0.076941535 -0.035038017 -0.20920078
000250 b0 a5 52 bc 63 89 2e be 4c dd 86 bc 8e 91 12 3d
       -0.012856886 -0.17044596 -0.016462944 0.035783343
000260 1e 07 0b 3f 7d ee 65 3e 2a 8c 16 be ba 3e 4b 3e
       0.54307735 0.22454257 -0.14701906 0.19848147
000270 50 b8 dd 3d 40 a0 77 be 66 9c cd 3d d9 97 7b 3c
       0.108261704 -0.24182224 0.10039596 0.0153560275
000280 d9 ab 17 be 00 03 b2 bc cd 03 24 3e a4 6b 8f 3e
       -0.14811648 -0.021729946 0.16017075 0.2801181
000290 56 1f 1b 3e d7 9b 3b be d5 12 93 be d7 21 ee 3d
       0.15148672 -0.18321167 -0.28725305 0.11627548
0002a0 e8 50 32 3e 4f 4b df 3c b6 74 b6 3d ca ac 8c be
       0.17413676 0.02725759 0.089089796 -0.27475578
0002b0 76 79 c2 bd cf 88 5a 3d a8 33 d7 3d 64 1d aa be
       -0.09495823 0.053353127 0.105078995 -0.33225548
0002c0 73 8c 45 bc 14 6e 4c be 33 b7 08 be b8 41 03 be
       -0.0120574115 -0.19963866 -0.13351135 -0.12818038
0002d0 80 c0 fb 3d 27 12 1c 3c 15 94 c9 bd ad 32 74 3c
       0.12292576 0.009525812 -0.098426975 0.01490466
0002e0 80 b0 1e bd 81 7f 83 bd b3 d6 2e 3d 8f 3f f6 3c
       -0.038742542 -0.06420804 0.042685222 0.030059604
0002f0 d4 db 81 be 18 ce e3 be 5c 27 1a 3e 2a 3b 7f 3d
       -0.25363028 -0.44493175 0.15054077 0.062312283
000300 09 ca 1a 3e bc 48 c0 bc ae 55 8c bd ab f8 57 be
       0.15116133 -0.023472182 -0.068522796 -0.21090953
000310 00 26 ac 3c 5e b8 3c bd f1 76 56 3e 49 25 1d bd
       0.021014214 -0.046074264 0.2094381 -0.038365636
000320 8e 2f 02 bd 06 81 02 be 28 fc 3a be 18 61 1a 3e
       -0.031783633 -0.12744531 -0.18260252 0.15076101
000330 68 ff 1d be 76 5b 6a be bb 0d 52 3e 07 0e 24 3e
       -0.15429461 -0.22886452 0.2051305 0.16020976
000340 83 e0 11 be 60 b0 d1 bd d4 72 78 be 82 75 b7 3c
       -0.142458 -0.10238719 -0.24262553 0.0223949
000350 01 f4 57 be 81 bb 14 bd 4d d6 93 3e d8 df 72 bd
       -0.21089174 -0.03631163 0.28874436 -0.059295505
000360 da 01 ba 3d a5 24 96 3c f6 aa 3d be 4f 20 0a be
       0.090823844 0.01832802 -0.18522248 -0.13488887
000370 b4 0c 27 bd f7 8f 89 3e d5 8f 18 be 9c 51 1b bf
       -0.0407836 0.2686765 -0.14898618 -0.606714
000380 72 cd 7c be 10 63 a3 3e ed c6 17 3d db 2d ef 3c
       -0.24687746 0.31911516 0.037054945 0.02919667
000390 d5 47 cd 3c 3f 55 38 3e 00 a8 29 be ed d1 d2 b9
       0.025058666 0.18001269 -0.16567993 -0.00040210728
0003a0 69 6b 08 3e 87 35 ac 3d 88 fa cb 3d fd 74 08 3e
       0.13322224 0.08408647 0.099598944 0.13325877
0003b0 2f bb 7f bd 2e 3f 2d be 97 73 50 bc 4a e1 4b 3e
       -0.06243437 -0.16918632 -0.012722871 0.1991016
0003c0 31 60 3f bc e7 80 4c be 47 a2 bc 3e 5b 97 84 3e
       -0.011680649 -0.19971047 0.36842558 0.25896725
0003d0 e6 29 43 be f2 15 6e 3e c7 f2 87 be 00 6b 77 bc
       -0.19058952 0.23250559 -0.26552412 -0.015101194
0003e0 95 59 f2 3d 5e 31 45 3d 83 c6 91 3d 5c 43 c1 3d
       0.11833493 0.048142783 0.07117941 0.09436676
0003f0 29 28 60 be 33 50 ca bd 5f 4e 7d be e2 b6 d4 3d
       -0.2189032 -0.09878578 -0.24736927 0.10386445

base.mlp.fc_h.0.bias f4 [64]
000000 00 00 00 00 00 00 00 00 00 00 00 00 00 00 00 00
       0.0 0.0 0.0 0.0
000010 00 00 00 00 00 00 00 00 00 00 00 00 00 00 00 00
       0.0 0.0 0.0 0.0
000020 00 00 00 00 00 00 00 00 00 00 00 00 00 00 00 00
       0.0 0.0 0.0 0.0
000030 00 00 00 00 00 00 00 00 00 00 00 00 00 00 00 00
       0.0 0.0 0.0 0.0
000040 00 00 00 00 00 00 00 00 00 00 00 00 00 00 00 00
       0.0 0.0 0.0 0.0
000050 00 00 00 00 00 00 00 00 00 00 00 00 00 00 00 00
       0.0 0.0 0.0 0.0
000060 00 00 00 00 00 00 00 00 00 00 00 00 00 00 00 00
       0.0 0.0 0.0 0.0
000070 00 00 00 00 00 00 00 00 00 00 00 00 00 00 00 00
       0.0 0.0 0.0 0.0
000080 00 00 00 00 00 00 00 00 00 00 00 00 00 00 00 00
       0.0 0.0 0.0 0.0
000090 00 00 00 00 00 00 00 00 00 00 00 00 00 00 00 00
       0.0 0.0 0.0 0.0
0000a0 00 00 00 00 00 00 00 00 00 00 00 00 00 00 00 00
       0.0 0.0 0.0 0.0
0000b0 00 00 00 00 00 00 00 00 00 00 00 00 00 00 00 00
       0.0 0.0 0.0 0.0
0000c0 00 00 00 00 00 00 00 00 00 00 00 00 00 00 00 00
       0.0 0.0 0.0 0.0
0000d0 00 00 00 00 00 00 00 00 00 00 00 00 00 00 00 00
       0.0 0.0 0.0 0.0
0000e0 00 00 00 00 00 00 00 00 00 00 00 00 00 00 00 00
       0.0 0.0 0.0 0.0
0000f0 00 00 00 00 00 00 00 00 00 00 00 00 00 00 00 00
       0.0 0.0 0.0 0.0

base.mlp.fc_h.2.weight f4 [64]
000000 00 00 80 3f 00 00 80 3f 00 00 80 3f 00 00 80 3f
       1.0 1.0 1.0 1.0
000010 00 00 80 3f 00 00 80 3f 00 00 80 3f 00 00 80 3f
       1.0 1.0 1.0 1.0
000020 00 00 80 3f 00 00 80 3f 00 00 80 3f 00 00 80 3f
       1.0 1.0 1.0 1.0
000030 00 00 80 3f 00 00 80 3f 00 00 80 3f 00 00 80 3f
       1.0 1.0 1.0 1.0
000040 00 00 80 3f 00 00 80 3f 00 00 80 3f 00 00 80 3f
       1.0 1.0 1.0 1.0
000050 00 00 80 3f 00 00 80 3f 00 00 80 3f 00 00 80 3f
       1.0 1.0 1.0 1.0
000060 00 00 80 3f 00 00 80 3f 00 00 80 3f 00 00 80 3f
       1.0 1.0 1.0 1.0
000070 00 00 80 3f 00 00 80 3f 00 00 80 3f 00 00 80 3f
       1.0 1.0 1.0 1.0
000080 00 00 80 3f 00 00 80 3f 00 00 80 3f 00 00 80 3f
       1.0 1.0 1.0 1.0
000090 00 00 80 3f 00 00 80 3f 00 00 80 3f 00 00 80 3f
       1.0 1.0 1.0 1.0
0000a0 00 00 80 3f 00 00 80 3f 00 00 80 3f 00 00 80 3f
       1.0 1.0 1.0 1.0
0000b0 00 00 80 3f 00 00 80 3f 00 00 80 3f 00 00 80 3f
       1.0 1.0 1.0 1.0
0000c0 00 00 80 3f 00 00 80 3f 00 00 80 3f 00 00 80 3f
       1.0 1.0 1.0 1.0
0000d0 00 00 80 3f 00 00 80 3f 00 00 80 3f 00 00 80 3f
       1.0 1.0 1.0 1.0
0000e0 00 00 80 3f 00 00 80 3f 00 00 80 3f 00 00 80 3f
       1.0 1.0 1.0 1.0
0000f0 00 00 80 3f 00 00 80 3f 00 00 80 3f 00 00 80 3f
       1.0 1.0 1.0 1.0

base.mlp.fc_h.2.bias f4 [64]
000000 00 00 00 00 00 00 00 00 00 00 00 00 00 00 00 00
       0.0 0.0 0.0 0.0
000010 00 00 00 00 00 00 00 00 00 00 00 00 00 00 00 00
       0.0 0.0 0.0 0.0
000020 00 00 00 00 00 00 00 00 00 00 00 00 00 00 00 00
       0.0 0.0 0.0 0.0
000030 00 00 00 00 00 00 00 00 00 00 00 00 00 00 00 00
       0.0 0.0 0.0 0.0
000040 00 00 00 00 00 00 00 00 00 00 00 00 00 00 00 00
       0.0 0.0 0.0 0.0
000050 00 00 00 00 00 00 00 00 00 00 00 00 00 00 00 00
       0.0 0.0 0.0 0.0
000060 00 00 00 00 00 00 00 00 00 00 00 00 00 00 00 00
       0.0 0.0 0.0 0.0
000070 00 00 00 00 00 00 00 00 00 00 00 00 00 00 00 00
       0.0 0.0 0.0 0.0
000080 00 00 00 00 00 00 00 00 00 00 00 00 00 00 00 00
       0.0 0.0 0.0 0.0
000090 00 00 00 00 00 00 00 00 00 00 00 00 00 00 00 00
       0.0 0.0 0.0 0.0
0000a0 00 00 00 00 00 00 00 00 00 00 00 00 00 00 00 00
       0.0 0.0 0.0 0.0
0000b0 00 00 00 00 00 00 00 00 00 00 00 00 00 00 00 00
       0.0 0.0 0.0 0.0
0000c0 00 00 00 00 00 00 00 00 00 00 00 00 00 00 00 00
       0.0 0.0 0.0 0.0
0000d0 00 00 00 00 00 00 00 00 00 00 00 00 00 00 00 00
       0.0 0.0 0.0 0.0
0000e0 00 00 00 00 00 00 00 00 00 00 00 00 00 00 00 00
       0.0 0.0 0.0 0.0
0000f0 00 00 00 00 00 00 00 00 00 00 00 00 00 00 00 00
       0.0 0.0 0.0 0.0

base.mlp.fc2.0.0.weight f4 [64, 64]
000000 b0 03 3a 3d 6f c2 4b 3d 95 ee 3e bd c4 3f d9 bc
       0.045413673 0.049745973 -0.04661425 -0.026519664
000010 4a 6e a3 bd 94 c1 8b 3e 2e 8d bf bd 3c 91 67 be
       -0.0798002 0.27296126 -0.093531 -0.22613996
000020 08 4f e2 3d cf ee 29 be 54 c8 ae be 7e d6 0a be
       0.1105023 -0.16595004 -0.34137213 -0.13558385
000030 90 22 76 3c 9b 85 52 3e 5a 32 98 3d 32 c7 8d bd
       0.015022889 0.20558779 0.07431479 -0.06922759
000040 9e 06 81 3e 8c fc d9 3d d6 cb 75 be b5 3e 70 be
       0.2520036 0.106438726 -0.24003538 -0.23461421
000050 cf 46 91 be d1 cf 06 3e 8c 73 5b 3e e5 9d 33 3c
       -0.28374335 0.13165213 0.21430796 0.010962938
000060 3f a9 41 3d 3a d1 b8 3d 1c af 35 be 27 c0 88 be
       0.047280546 0.09024282 -0.1774258 -0.267091
000070 7d 54 4d 3e 12 7e 8f 3e 8e ea 15 be 52 97 96 3e
       0.20051761 0.28025872 -0.14640257 0.29412323
000080 9a d7 3e be c1 14 05 3c 1d 83 04 3e e4 14 4f be
       -0.18636933 0.008122624 0.12940641 -0.20222813
000090 31 b9 d1 3d d5 70 bc bd 4c eb 75 3e f6 ad 96 3c
       0.102404006 -0.092012085 0.2401554 0.018393498
0000a0 d6 15 a3 3d 89 70 7f be 46 50 51 3e 13 ba eb 3d
       0.07963149 -0.24945273 0.20440778 0.115101
0000b0 5f 76 ab be 51 4c 52 be 37 10 75 be 62 7a 45 bb
       -0.33488747 -0.20536925 -0.23931967 -0.003013276
0000c0 11 d9 a7 3e 5a 8f be bc 0a d5 b7 be 05 49 29 bd
       0.32782796 -0.023261715 -0.35904723 -0.041329402
0000d0 39 cb 38 be d8 5b 0a 3e 19 17 41 bd 74 31 c8 3c
       -0.18046273 0.13511598 -0.04714117 0.024437644
0000e0 1c 9f a7 3d f8 fb 28 be 82 e6 2c bd 18 48 e2 3d
       0.081846446 -0.16502368 -0.042212017 0.11048907
0000f0 28 99 a8 3e 34 b0 3f 3c 2e cc a4 3e 50 96 88 3c
       0.3292935 0.011699725 0.32187027 0.016673237
000100 51 36 2a 3e 0d ce 14 3d 31 6e 46 be cf 3c 57 3e
       0.16622283 0.036329318 -0.19377972 0.2101929
000110 e3 ca 70 bd 0a 8f 99 bd eb ca 31 be ed e7 7b 3e
       -0.058787238 -0.07497986 -0.17362563 0.24600191
000120 9e 60 c5 3d 2e 84 5e bc 3c 32 8e bd a1 17 7d 3e
       0.09637569 -0.013581319 -0.06943175 0.24716045
000130 e7 a2 6d 3e 73 2e c3 3e 67 9a ba 3d 07 74 42 3e
       0.23206674 0.38121375 0.09111481 0.18989573
000140 98 ba 2e be 0a 1c e6 3d 9b d4 62 3e 3a be 13 3e
       -0.17063367 0.11235817 0.22151415 0.14428034
000150 6b 4d 58 bd b3 d1 83 3e 03 7b 9e 3c f6 08 cf 3c
       -0.052808207 0.25745925 0.019345766 0.025272828
000160 72 27 5f 3e 74 9d 36 bd 5c fd 42 be c2 33 70 bc
       0.21792391 -0.044583753 -0.19041961 -0.0146607775
000170 ad 2a 3a 3e 2e 5f 30 3d eb 2e 62 bb 75 7f 1a 3d
       0.18180342 0.04305952 -0.0034512829 0.03771921
000180 41 1a 0d 3e b7 17 95 3e 19 dd be 3c 76 30 3e be
       0.13779546 0.29119655 0.023298787 -0.18573174
000190 09 89 45 be fe b6 cb 3e c8 23 ea bc 3b 3f 04 3d
       -0.19290556 0.3978805 -0.028581515 0.032286864
0001a0 27 8d 68 3e 55 27 86 bd ba 78 01 3e d4 7a 9d be
       0.22710095 -0.06550471 0.1264371 -0.30757773
0001b0 9b e3 7d 3e 55 01 87 3e 57 09 4e 3e 37 36 08 3e
       0.24793856 0.26368204 0.2012075 0.13301931
0001c0 e2 9d 4b be cd 04 2e 3e a1 eb db 3d c1 ed 37 be
       -0.19884446 0.16994019 0.10738302 -0.1796179
0001d0 e7 5f 76 3e 63 ff 0a be 83 48 7b bd 0a 65 85 3e
       0.24060021 -0.13573985 -0.06134845 0.2605365
0001e0 73 d1 59 3e a3 7d 84 3d 86 bf 56 bd a6 a8 9d bc
       0.21271305 0.06469276 -0.052428745 -0.019245457
0001f0 9a e1 28 3e 5a 45 94 3e aa a4 d3 3e 7e 82 a4 3e
       0.1649231 0.2895916 0.41336566 0.32130808
000200 41 d2 ad 3d 2c c0 36 3e a2 7b e3 bd b0 17 b1 3d
       0.084873684 0.17846745 -0.111075655 0.08647096
000210 e2 3d 8a 3d f0 e4 98 3d b1 a2 01 3e d4 d9 de 3e
       0.067500845 0.07465541 0.12659718 0.43525565
000220 3e b4 82 bd b7 20 a3 be d2 12 30 be 79 85 a3 be
       -0.06382035 -0.31860897 -0.1719468 -0.3193777
000230 c8 1d 75 3d 2b 84 9c 3d f7 bc 7e 3d 9b 04 b1 3b
       0.059842855 0.076423965 0.06219193 0.0054021603
000240 57 56 2a bd c1 02 fc bd bc c1 e9 bc 72 de 4c be
       -0.041586246 -0.12305213 -0.028534763 -0.20006731
000250 9c 88 d4 bc a8 72 3f be 6f a9 df 3c 93 17 05 3d
       -0.025944047 -0.18696082 0.027302472 0.032493185
000260 7c d1 0a 3f 7a 03 33 3e 29 4b 3b be 52 1e 2d 3e
       0.542259 0.17481795 -0.1829039 0.16906098
000270 19 d0 fe 3d eb 21 52 be fd 1d 8f 3d 3c 49 04 bd
       0.12442035 -0.20520751 0.06988142 -0.032296404
000280 18 48 c1 bd df 81 97 3b bb 79 fa 3d 50 3e 91 3e
       -0.09437579 0.004623636 0.122302495 0.28367853
000290 81 18 65 3e 43 05 0f be b1 3c 82 be 6e 0d f8 3d
       0.22372629 -0.13966851 -0.2543693 0.121119365
0002a0 33 04 4f 3e 3a ea 32 3d 83 e1 90 3d 7c 8e a5 be
       0.20216446 0.043680407 0.07074263 -0.3233527
0002b0 7d 2c a2 bd 25 51 9a 3d 79 22 d9 3d 0a fe a5 be
       -0.07918642 0.07535008 0.10602278 -0.3242038
0002c0 9b d9 32 bd 25 b8 58 be bc cb 2e be 5a b8 cf bd
       -0.043664556 -0.21163996 -0.17069906 -0.10142584
0002d0 15 47 03 3e f5 cd df bb ed ee c1 bd 56 2c e9 3c
       0.12820084 -0.006829972 -0.094693996 0.028463524
0002e0 dd 75 a5 bd c1 5b 01 bc 73 ad 96 3d 6e f1 2b 3d
       -0.08079121 -0.007895411 0.073573016 0.041978292
0002f0 c3 7e 87 be fa 31 e5 be de 32 c4 3d 3f e5 2a 3d
       -0.264639 -0.44764692 0.09580015 0.041722532
000300 dc c7 4b 3e 9b d2 05 3c 3f 58 30 bd 30 50 3b be
       0.19900459 0.008167888 -0.043052908 -0.18292308
000310 a6 1a 03 3d 78 16 29 bb f6 b4 43 3e dc 98 06 bd
       0.032007836 -0.0025800746 0.19112 -0.03286062
000320 25 39 b1 bd 12 7e dc bd eb f1 fe bd aa 2c 0b 3e
       -0.086534776 -0.107662335 -0.12448486 0.13591257
000330 c6 3c f9 bd e3 7a 11 be 7f 0e 45 3e 03 8c 4e 3e
       -0.12169795 -0.14207034 0.19243811 0.20170598
000340 f1 d0 c5 bd 33 26 09 bd 3f 07 7e be 5c 43 ab 3c
       -0.09658993 -0.033483695 -0.24807452 0.020906143
000350 84 3d 4a be c5 bd da 3c d3 2d 85 3e 0c 7f 0f bd
       -0.19750029 0.026701817 0.26011524 -0.03503327
000360 d9 6d cf 3d 7f 29 01 bc 1b ee 07 be 53 2f 32 be
       0.10128374 -0.007883429 -0.13274424 -0.17400865
000370 e5 c7 04 bd d1 a0 8e 3e 56 31 f7 bd 22 6b 2f bf
       -0.032417197 0.27857068 -0.12069957 -0.68522847
000380 55 80 81 be 3e 59 97 3e 6c 6c 03 3e 66 ae d1 3c
       -0.25293222 0.29560274 0.12834328 0.025595855
000390 8e d7 58 3c 35 c6 44 3e 52 4b 43 be ba 43 3f bc
       0.013234986 0.19216235 -0.19071701 -0.011673862
0003a0 d4 e1 22 3e ed 39 d3 3d 6c 4d c4 3d b6 89 52 3e
       0.15906459 0.10313783 0.095850796 0.20560345
0003b0 98 c1 90 bd 68 d6 21 be 7f 79 08 bc d9 c2 49 3e
       -0.07068175 -0.15804446 -0.008329748 0.19703235
0003c0 0e e1 42 bd 68 ee 35 be ea 73 c2 3e 92 29 90 3e
       -0.04757791 -0.17766726 0.3797906 0.28156716
0003d0 0b 7f 47 be ff 34 4b 3e f5 10 85 be f0 31 88 bc
       -0.19482057 0.19844435 -0.259895 -0.016625375
0003e0 f8 60 1e 3e 26 a4 4e bc b4 02 25 3d 76 c8 5e 3d
       0.15466678 -0.012612378 0.04028578 0.054390393
0003f0 ff 27 92 be aa d3 cd bd 2b 8f 70 be 47 82 99 3d
       -0.2854614 -0.10050137 -0.23492114 0.074955516

base.mlp.fc2.0.0.bias f4 [64]
000000 d4 67 9a 3a 0e fc c6 bd ff ed 8a bb d4 5e e7 bb
       0.0011780211 -0.09716044 -0.004239797 -0.007060865
000010 db 5c d3 3c 2e 23 9a bc 10 fa 1c 3c 3f 44 5f bd
       0.025801113 -0.018815603 0.009581104 -0.054508444
000020 5d ec e9 bc c8 99 b8 3c 27 9a b2 bd 59 e7 3a 3d
       -0.02855509 0.022534266 -0.087208085 0.045630787
000030 8c 2e 7b bc 0d 48 f8 3c a2 90 d2 3c c3 0b 31 3c
       -0.015330922 0.030307794 0.025703732 0.010806027
000040 1e 0e 2a bd 1b c9 7e bd 7c d3 32 bc b0 29 ff bb
       -0.04151737 -0.062203508 -0.01091468 -0.007786952
000050 c1 87 1b bd 93 25 bb 3b 0f 9f a5 3d 3f e7 a6 bd
       -0.037971262 0.0057112663 0.08086979 -0.081495754
000060 1c 7d dd bb 98 9b 7f 3c a0 c8 cd bc ea 1a 7e bd
       -0.006759299 0.015601061 -0.02512008 -0.062037386
000070 84 2e 93 3c 8f 72 7d 3c 63 d4 bc 3b 43 18 f2 3c
       0.017966516 0.015469207 0.005762623 0.029552585
000080 d5 25 eb bc 4e 50 60 3c 30 9b 4c 3d 58 e4 92 3c
       -0.028704563 0.013691021 0.049952686 0.017931148
000090 76 1c e4 3b 7e d6 88 3d 68 d6 e1 3b 2e 5a 5a 3c
       0.0069614006 0.06681536 0.0068920143 0.013327165
0000a0 61 44 23 3e 1b 06 fd 3b 0e 82 1e bd b3 7a 1d be
       0.15944053 0.007721675 -0.03869825 -0.15378837
0000b0 2f 71 bf bc 14 f9 ad 3b 77 cb 44 3c 65 40 ac 3b
       -0.0233694 0.0053092334 0.0120114 0.0052567
0000c0 1f 42 aa bd 1f b5 9e bc 74 22 34 3d f7 8b 0f bd
       -0.08313393 -0.019373475 0.04397817 -0.03504559
0000d0 e2 08 b9 3d 26 77 c2 ba 47 3a d5 3c c9 e2 3d 3b
       0.090348974 -0.0014836534 0.026028765 0.0028974286
0000e0 f4 bd 05 bd d6 a6 55 3d b1 ee 83 bd 6a c9 7b bb
       -0.032651857 0.05216106 -0.06442011 -0.0038419613
0000f0 e4 44 c9 3b 7b 03 92 bb 3c 36 53 3a 67 8d 39 bd
       0.0061422456 -0.0044559813 0.0008057093 -0.045300867

base.mlp.fc2.0.2.weight f4 [64]
000000 64 08 8f 3f 14 37 82 3f 77 cc 81 3f 8b 4b 7f 3f
       1.1174436 1.0173059 1.0140523 0.99724644
000010 d9 c1 72 3f 14 27 88 3f 86 2c 9a 3f d3 67 88 3f
       0.9482704 1.0636926 1.2044837 1.0656685
000020 47 b4 78 3f 2a 25 94 3f d9 11 87 3f 25 aa 80 3f
       0.9715008 1.1573842 1.0552322 1.0051924
000030 10 db 7c 3f 05 9c 9a 3f ed e1 6c 3f 58 94 82 3f
       0.9877176 1.2078863 0.92532235 1.0201521
000040 14 86 72 3f 58 8e 84 3f d6 b4 79 3f 8b bf 84 3f
       0.94735837 1.035594 0.9754156 1.0370954
000050 ec bd 81 3f e0 e4 8a 3f ef dd 8c 3f fe 18 83 3f
       1.0136085 1.0851097 1.1005229 1.0242002
000060 39 44 81 3f dd 56 7f 3f 62 c3 56 3f b0 f8 83 3f
       1.0098945 0.9974192 0.8389188 1.0310268
000070 e9 51 81 3f da 3e 7e 3f 68 e7 84 3f b8 a9 8e 3f
       1.0103122 0.99314654 1.038312 1.1145544
000080 ba 99 8d 3f c1 37 7b 3f 30 28 91 3f c8 a8 6f 3f
       1.1062539 0.9813195 1.1340389 0.93616915
000090 06 01 82 3f 02 a4 62 3f d1 b6 74 3f 35 95 93 3f
       1.0156562 0.88531506 0.95591456 1.1529909
0000a0 80 62 72 3f 25 27 96 3f 4e e4 83 3f a0 aa 85 3f
       0.9468155 1.1730696 1.0304048 1.0442696
0000b0 97 bf 76 3f 7a b5 89 3f 34 af 84 3f e2 4f 88 3f
       0.9638609 1.0758507 1.0365968 1.0649378
0000c0 be a0 85 3f bc 81 83 3f ff 96 75 3f b0 b0 7f 3f
       1.043968 1.0273967 0.95933527 0.9987898
0000d0 af 8b 6e 3f 1b f0 86 3f 45 2c 86 3f 51 53 83 3f
       0.9318189 1.0542024 1.048226 1.0259801
0000e0 ed bd 87 3f 1a d5 8e 3f 67 8a 85 3f 8d 91 83 3f
       1.0604836 1.1158783 1.0432862 1.0278794
0000f0 4c 70 77 3f 40 24 88 3f eb e1 9a 3f d8 d8 83 3f
       0.96655726 1.0636063 1.2100195 1.030055

base.mlp.fc2.0.2.bias f4 [64]
000000 64 5b a5 bc 0d 4e 53 bd 3e 7d 9c bc 7f 66 57 3d
       -0.02018518 -0.051588107 -0.019102689 0.052587982
000010 84 34 7d bc 20 9e bf 3d bd 2e a2 3d b3 e4 25 bd
       -0.015454415 0.09356332 0.07919071 -0.040501308
000020 1f 8e 87 bd b3 4e 33 bd b5 ca 46 bd a9 0b c4 3d
       -0.06618904 -0.043776225 -0.04853316 0.095725365
000030 25 eb 2e bd 6f c2 bf 3d 5c a8 74 bd b7 06 73 ba
       -0.04270472 0.09363257 -0.059730873 -0.0009270715
000040 37 5a 11 bd 79 e4 0f bd 6f 96 49 bd 43 dd 0d bd
       -0.035486426 -0.035129998 -0.04921573 -0.03463484
000050 05 b6 48 b9 ae a6 59 3c 5e 09 99 bd 7a f8 f5 bc
       -0.00019141294 0.013284368 -0.0747249 -0.03002571
000060 a1 ce 57 bd 61 39 d9 bc 0e 5a 09 3d 31 83 8b bd
       -0.05268729 -0.026516618 0.03353315 -0.06812132
000070 1b 44 22 bd e9 c7 d4 bc 14 78 32 bd d3 c7 0c 3c
       -0.03961573 -0.02597423 -0.043571547 0.008592564
000080 31 52 9d ba 67 6f b0 3b a1 0f b1 3d e0 8e 94 bc
       -0.0012002644 0.005384374 0.08645559 -0.018134534
000090 f2 d7 a3 bc 5f 48 1b bd b2 3b a4 3c 67 14 ea bc
       -0.020000432 -0.037910815 0.020047996 -0.028574182
0000a0 5b 29 42 bd 70 5c dc 3d 0b 28 38 bd 34 7e 3e bd
       -0.04740272 0.107598186 -0.044960063 -0.046507075
0000b0 78 c1 12 3c b8 37 cb 3d 37 35 a8 bd 85 92 8c 3d
       0.008957259 0.09922737 -0.08213275 0.06863884
0000c0 76 02 19 bd cc 3c 2e bd ff 8b 31 3d 1a 6b 6f bd
       -0.037355863 -0.04253845 0.0433464 -0.05845175
0000d0 ee 04 ee 3c 71 62 6c 3a 61 a7 11 bd 47 72 ab bd
       0.029055085 0.00090173545 -0.035560016 -0.08371406
0000e0 c3 34 45 bd 06 6f cc bc 85 1d 6f bd 63 3c 98 bd
       -0.04814602 -0.024955284 -0.05837776 -0.07433393
0000f0 bd 5e 69 bc 7f 4c 87 bd f8 26 42 3d 00 07 5d bd
       -0.014243779 -0.06606387 0.047400445 -0.053961754

act.action_outs.0.linear.weight f4 [2, 64]
000000 83 d0 d8 bd 1d 3f 23 3b e5 d2 da 3c 1d d1 a4 3c
       -0.105866455 0.0024909445 0.02671189 0.020119244
000010 6e c3 34 3d eb 6f 83 3d 76 22 ab 3d 88 b8 b9 bb
       0.04413169 0.06417831 0.08356182 -0.00566775
000020 f6 86 86 bb f8 50 b9 bd 0a f3 37 bb 6e 94 77 bd
       -0.004105444 -0.09048647 -0.0028068447 -0.060444288
000030 48 87 06 bc 4a 33 ac 3d af 10 f9 bc 83 44 6f bd
       -0.0082109645 0.0840822 -0.030403463 -0.058414947
000040 38 6f d4 3c 7c 4b d1 bb 89 2f e8 bb f4 74 6a bd
       0.02593194 -0.0063871723 -0.0070857448 -0.05724044
000050 b4 e6 70 3b 2a 2e 24 3d f0 74 a1 bd d1 d7 b5 bd
       0.0036758604 0.040083088 -0.07883632 -0.08879054
000060 fa 3a 70 bd 96 15 02 bd ad a0 91 3c c5 18 c8 3b
       -0.058649994 -0.031758867 0.017776811 0.0061064684
000070 7a 06 e1 3c 3e 51 48 bc fe 1d e2 3a 99 0a c2 bd
       0.027468909 -0.012226401 0.001725137 -0.094746776
000080 ed 5c c2 3d 3e 7d 24 3d 53 6e fe 3d fa cf 04 3d
       0.094903804 0.040158503 0.124233864 0.032424904
000090 6b ee f5 bb ad 80 2f bc 6e 85 8d bc 93 44 e0 bd
       -0.0075052283 -0.010711831 -0.017275538 -0.109505795
0000a0 58 e0 95 bc ac e5 ef 3d 9a 26 9d 3b 10 4f 43 3b
       -0.018295452 0.11713728 0.0047958614 0.0029801764
0000b0 8d 3c 6c 3d 46 21 15 bd b0 d9 d1 bc 50 fd 27 3d
       0.057674933 -0.036408685 -0.025616497 0.041013062
0000c0 3b cf 82 3b 56 70 8e bb 7b 98 47 bd 8c 87 30 bc
       0.003991989 -0.0043468876 -0.0487294 -0.010774504
0000d0 26 c6 73 3a d8 58 be 3d 56 86 95 bb 42 a6 e3 bc
       0.0009299241 0.09294289 -0.004563133 -0.027789239
0000e0 aa 7f 2b 3c 72 80 c3 bd e4 73 36 bb 03 cc 29 bd
       0.010467449 -0.095459834 -0.0027840072 -0.041454326
0000f0 41 e2 40 3b c5 e3 9c 3c 52 65 01 3e d4 5b 35 3b
       0.0029431733 0.019151578 0.12636307 0.0027673142
000100 98 0d d9 3d 14 49 bb bb 8e 69 fe bc 78 83 bd bc
       0.10598296 -0.0057154987 -0.031056192 -0.023133978
000110 1a 19 2e bd 11 30 84 bd 56 a6 a9 bd a5 60 e9 3b
       -0.042504407 -0.064544804 -0.08283679 0.0071221166
000120 0a a0 f5 3a d1 45 bb 3d a3 3e 95 3b 46 53 81 3d
       0.0018739712 0.09144176 0.004554586 0.06314711
000130 7b a9 17 3c da bb a7 bd 78 80 f5 3c 57 94 7a 3d
       0.009256716 -0.08190127 0.029968485 0.061176624
000140 85 9e bf bc 5f ec 51 3b 19 e5 f2 3b 9c 6f 70 3d
       -0.023391018 0.0032031757 0.0074125645 0.05870019
000150 c1 71 64 bb 88 b2 1d bd 69 60 9f 3d 88 8c b6 3d
       -0.0034857842 -0.03850034 0.07782061 0.08913523
000160 b5 89 6a 3d 67 15 05 3d 9e cf 74 bc 27 06 76 bb
       0.057260234 0.032491114 -0.014942078 -0.0037540288
000170 dc 37 e7 bc 75 5c 33 3c 64 1f bb 3a 21 0d c1 3d
       -0.028224878 0.010947336 0.0014276323 0.09426332
000180 46 11 c7 bd b1 72 2e bd 54 d5 01 be 1a 95 0b bd
       -0.097200915 -0.042589847 -0.12679034 -0.03407774
000190 a4 22 db 3b 94 67 33 3c 02 a7 8d 3c 16 4d df 3d
       0.006687479 0.010949988 0.01729155 0.10903375
0001a0 9a 6b a1 3c 29 7c f0 bd 1b 34 6c bb cf 2e 5a bb
       0.019704629 -0.11742432 -0.00360418 -0.003329206
0001b0 3f 73 6d bd e0 4a 12 3d 17 ac cb 3c 29 d1 31 bd
       -0.057971235 0.035715938 0.024862332 -0.04341236
0001c0 60 19 17 bb 59 94 d1 3a 49 01 42 3d da 32 4f 3c
       -0.0023055896 0.0015989646 0.047364507 0.012646401
0001d0 d2 61 47 39 d1 45 b8 bd d6 70 b0 3b 84 48 f1 3c
       0.0001901456 -0.089976914 0.005384545 0.029453523
0001e0 61 c4 4b bc ca 20 c2 3d a2 c1 8e 3b fc f6 25 3d
       -0.012436957 0.0947891 0.004356579 0.040518746
0001f0 ce 51 09 ba bb 57 a0 bc 1d 06 01 be b2 85 0f bb
       -0.0005238325 -0.019573083 -0.12599988 -0.0021899757

act.action_outs.0.linear.bias f4 [2]
000000 04 2d e3 bb a4 2d e3 3b
       -0.0069328565 0.006932931

act.action_outs.1.linear.weight f4 [2, 64]
000000 8d 10 b4 3d f7 90 cf bd b5 2a 82 bd b5 f6 a2 3c
       0.08792219 -0.10135072 -0.06355802 0.01989303
000010 2a 23 95 3c 14 7f d1 3d 34 6d 80 3d ca bd cc bd
       0.018205244 0.10229316 0.06270829 -0.09997137
000020 46 30 5d bd a2 30 50 3d 30 a4 b3 bd b1 d5 72 3d
       -0.054001115 0.05082763 -0.08771551 0.059285823
000030 a2 c0 53 bd 34 b4 7e 3d 70 e5 be bc 94 4d d7 bc
       -0.05169738 0.062183574 -0.023302764 -0.02628211
000040 94 63 d9 bc 1c 84 6a bd 80 00 b0 bb 50 ef 46 bd
       -0.02653674 -0.057254896 -0.0053711534 -0.04856807
000050 3b 45 a7 bd 86 5a a6 3d 20 6f 88 bd 32 57 e2 3b
       -0.081675015 0.08122735 -0.066618204 0.006907367
000060 f2 8d 58 bd 25 72 95 bc f8 97 15 bd 75 fd cc bd
       -0.052869745 -0.018242905 -0.03652188 -0.100092806
000070 66 8c 30 bd 1c 63 60 bd e1 27 95 bd a6 f5 c8 3d
       -0.043102644 -0.054782018 -0.07282997 0.09812479
000080 03 b0 67 3d 13 3d a6 bc 48 10 c4 3d 91 87 16 3c
       0.056564342 -0.020292794 0.09573418 0.009187595
000090 9b 87 80 bd 3a b5 57 bc 15 dc 83 bd f8 5f c4 3d
       -0.06275865 -0.013165766 -0.06438462 0.09588617
0000a0 45 ab e6 bc ed 2b a1 3d 24 11 b7 bd ad a1 d3 bd
       -0.02815784 0.07869706 -0.08938816 -0.103335716
0000b0 a6 8c 1c bc 26 31 4f 3d ba 96 ad bd 4e 4b 12 3c
       -0.009555018 0.05058398 -0.084760144 0.008929087
0000c0 39 9d ce bd 25 aa aa bd e7 7e 13 3d 3b f2 53 bd
       -0.100885816 -0.08333234 0.036009695 -0.05174468
0000d0 d1 c3 1f 3c 26 84 00 3d d8 26 8d bd 04 d7 b9 bd
       0.009751276 0.031376027 -0.068921745 -0.09074214
0000e0 f3 de bf bd 85 82 96 3d e7 5c d6 bd 8e e2 aa 3c
       -0.09368696 0.073491134 -0.104669385 0.020859983
0000f0 a7 68 c4 bc bd 0e 91 bd 5e b0 bb 3d 23 2c cb bd
       -0.023975683 -0.07082889 0.09164499 -0.09920528
000100 40 4f b8 bd a0 78 d2 3d 21 e8 81 3d 29 38 aa bc
       -0.08999491 0.10276914 0.06343103 -0.020778732
000110 c0 95 8f bc 5d 27 cc bd 33 3c 84 bd 6f 6e ca 3d
       -0.017527461 -0.099684455 -0.064567946 0.09884345
000120 66 ef 48 3d 85 54 53 bd f6 c5 b7 3d b2 52 70 bd
       0.049056433 -0.051594276 0.08973305 -0.058672614
000130 12 46 59 3d 98 64 80 bd 8d b6 c6 3c f5 1a d1 3c
       0.05304534 -0.06269187 0.024256969 0.02552555
000140 01 bb d0 3c 51 c7 67 3d 44 73 d0 3b 0c 40 4d 3d
       0.025479795 0.056586567 0.006361397 0.050109908
000150 19 cc ac 3d 1d e1 a2 bd fe 18 84 3d be 4d 96 bb
       0.08437366 -0.07953093 0.064500794 -0.0045869043
000160 4c c2 64 3d f7 7f a9 3c 60 57 10 3d dc 7b cc 3d
       0.05584936 0.020690901 0.035239577 0.09984562
000170 52 38 2f 3d bc 37 70 3d b5 12 91 3d 0b 15 c9 bd
       0.04277832 0.058646902 0.07083646 -0.09818467
000180 0f 34 69 bd d5 ee 9f 3c 52 26 c2 bd 22 12 39 bc
       -0.056934413 0.019523064 -0.09479965 -0.011295827
000190 eb 2d 7d 3d 97 3a 8c 3c 27 7d 85 3d d7 85 c0 bd
       0.06181137 0.017117782 0.065180115 -0.09400528
0001a0 94 b8 e8 3c 21 6c 9e bd 96 ca b9 3d 74 99 d4 3d
       0.028408326 -0.07735468 0.09071843 0.10380831
0001b0 98 e1 1a 3c f9 e6 57 bd 53 2e ae 3d 66 90 f5 bb
       0.0094532 -0.052710507 0.085049294 -0.0074940203
0001c0 1e be d3 3d dc 68 b2 3d e6 af 0c bd af 15 60 3d
       0.10338996 0.087114066 -0.034347437 0.05470818
0001d0 e0 c1 fc bb 5f 4d fb bc 25 02 8d 3d 3d e2 b9 3d
       -0.0077135414 -0.030676542 0.06885175 0.09076355
0001e0 8c 07 be 3d ec dc 96 bd b9 54 d5 3d 69 58 9e bc
       0.09278783 -0.07366356 0.1041655 -0.019329267
0001f0 a0 f5 be 3c 0a c3 8f 3d 91 ea b9 bd 52 4a c5 3d
       0.023310483 0.070196226 -0.09077943 0.09633316

act.action_outs.1.linear.bias f4 [2]
000000 fd a0 b2 3d f8 a0 b2 bd
       0.08722112 -0.087221086
